models/model-70000.onnx (onnx, 656093 bytes, 16 tensors)

220 f4 [2, 128, 5]
000000 2e a3 75 bf d5 a2 68 bf d3 d5 8c 3e f8 a6 75 3e
       -0.9595212 -0.9087346 0.27506885 0.23989475
000010 58 fd 17 bf d4 0b 8e 3d f0 5a 14 3f 28 17 04 3f
       -0.59370947 0.0693585 0.5795126 0.51597834
000020 ff f1 4e bd 5c 29 ea 3e 1f f2 6d bd 90 b9 ef 3d
       -0.050523754 0.4573468 -0.058092233 0.11705315
000030 54 cd 00 bf 8b 9d 9f be 53 3b 71 be fd 0e 1f bf
       -0.50313306 -0.31174883 -0.23557787 -0.62132245
000040 6f 51 21 bf f2 e3 9f be ca 0a 2f bf 18 8f e0 3e
       -0.6301488 -0.31228596 -0.6837584 0.43859172
000050 92 53 87 be bb 47 34 bf 3a d6 52 3f 13 6a 16 3f
       -0.26430947 -0.7042195 0.82358134 0.58755606
000060 fa 03 63 3d d6 de da be 6d 66 aa 3e 2f 36 2f 3f
       0.055423714 -0.42748135 0.3328127 0.6844205
000070 da 26 30 3f ef 15 6e bc 08 a7 ad bd 81 61 e2 be
       0.6880928 -0.014531597 -0.08479124 -0.44215015
000080 1f 92 81 3f 2b f8 32 3f 34 6b f9 3e 0c 71 1b 3f
       1.0122718 0.69909924 0.48714602 0.6071937
000090 fc 65 0d bf c4 67 03 3e 36 63 f8 3e 18 61 c8 3e
       -0.5523374 0.12832552 0.48513192 0.39136577
0000a0 fb ba f4 be f9 f0 75 3e 80 1f 8d 3e 4f c9 cc 3e
       -0.47798905 0.24017705 0.27563095 0.39997336
0000b0 68 bd 8c 3e 50 c1 84 bd d5 ef 63 3f 6a 12 bf 3d
       0.27488256 -0.06482184 0.8903783 0.09329684
0000c0 46 81 9d 3e d9 09 08 3f 57 02 34 bf 97 11 8a 3e
       0.3076269 0.53140026 -0.7031607 0.26966545
0000d0 fa b6 90 3f a9 e4 6d bf e9 be 55 be 02 b7 40 3f
       1.130584 -0.9292703 -0.20873608 0.7527925
0000e0 86 93 dc 3e 31 34 b2 bf b3 30 60 bf b4 ae ff 3e
       0.430813 -1.3922178 -0.8757431 0.49937975
0000f0 84 51 fc be 55 db 42 bc 55 ba 50 bf 3d 19 0a bf
       -0.4928094 -0.011893113 -0.8153432 -0.5394476
000100 b0 17 80 3f b8 0e 5b be c5 5e ea be 39 e2 36 3c
       1.0007229 -0.21392334 -0.45775428 0.011162334
000110 bb 40 d7 bf 42 db 1b 3e 76 b0 b8 bd 76 ba bc be
       -1.6816629 0.15220359 -0.09018032 -0.36861008
000120 d4 54 5e 3f 96 30 17 3f 6c 2c 15 bf 58 5c 11 bf
       0.8684819 0.5905851 -0.5827091 -0.5678153
000130 36 dd c7 be 85 65 09 bf c2 ac 43 3e a2 36 28 3f
       -0.39035958 -0.5367053 0.1910887 0.65708363
000140 cd 20 8a be e1 16 14 bf 6d f4 b3 bd 05 95 06 bf
       -0.2697815 -0.5784741 -0.08786855 -0.52571136
000150 b3 00 c6 3e 80 57 fc be 9d 41 03 bf e8 77 93 3e
       0.38672408 -0.49285507 -0.5127199 0.2880242
000160 27 fb 8e 3f 79 c0 91 3f d0 08 43 bd b7 e5 73 bf
       1.1170396 1.1386863 -0.047615826 -0.9527239
000170 12 79 9b be bf a4 6d 3e 10 c5 91 3e 41 ef 2b bf
       -0.30365807 0.23207377 0.2847066 -0.6716195
000180 08 f1 19 be 46 7e 96 3f 62 06 ae 3d f2 7d 28 bd
       -0.15033352 1.1757286 0.08497311 -0.041135736
000190 cf 23 65 bf 0c 05 1c 3e 48 3a b5 be 8a 35 48 bf
       -0.89507765 0.152363 -0.35396028 -0.78206694
0001a0 b7 a0 b7 3e 38 85 b9 be 64 39 c9 be 53 0b af 3f
       0.35864803 -0.3623445 -0.39301598 1.3675331
0001b0 ac 9e 55 3e ae 10 a2 be f9 17 81 bf c2 92 4e bf
       0.2086131 -0.3165335 -1.0085441 -0.80692685
0001c0 43 92 6c be ec bf f8 3b fd f2 95 be 8f cf 03 3e
       -0.2310267 0.0075912382 -0.29286948 0.12872146
0001d0 61 62 41 bf 4c 08 0c bc 70 10 91 3e 32 0f 80 3e
       -0.7554074 -0.0085469 0.28332853 0.25011593
0001e0 7b 06 ee 3e 19 24 68 3e a1 fd 96 3f d2 1e b5 bd
       0.4648932 0.2267002 1.1796151 -0.08843769
0001f0 cc 6d ad be 8b 31 43 be a1 0a 8d 3b 95 62 d5 3d
       -0.3387283 -0.19061868 0.0043042456 0.10419194
000200 43 8a 21 bc 36 8f f7 bd 95 4b a9 be 98 24 ff be
       -0.009859624 -0.12087862 -0.33065477 -0.49832606
000210 5c 0d 91 3e 92 0b 7d 3f ee 7b b0 3e 32 f3 43 bd
       0.28330505 0.9884578 0.3446955 -0.04783935
000220 f9 f9 c5 be b6 42 ad be 0e 87 b7 3d f4 5d 8b 3f
       -0.38667277 -0.3383996 0.089613065 1.0888047
000230 57 54 e8 be 85 5f c9 bd 86 61 1c 3f 7b 6f 23 bf
       -0.45376846 -0.09832672 0.6108631 -0.6384198
000240 69 0e d4 be 68 a7 a5 be 09 32 22 be a4 a7 70 3f
       -0.41417244 -0.32354283 -0.158394 0.940058
000250 aa b9 9c be be 7e 2a 3f 71 46 6f bf 3a 9b f5 be
       -0.306104 0.66599643 -0.9346686 -0.4796999
000260 db 46 b6 be eb c2 84 3f 0f 43 b4 3f 50 ac 9a 3f
       -0.35600933 1.0371984 1.4082965 1.2083836
000270 f4 78 11 bf 99 de b8 be 7e 83 35 be 98 77 e2 3e
       -0.56825185 -0.3610733 -0.17725942 0.44231868
000280 cb 8f 6b bf 7d 77 29 bf 03 16 a8 3e 0e 38 ca 3e
       -0.92016286 -0.6619795 0.32829294 0.3949589
000290 fc ac f3 be 15 3a 22 be 28 85 61 3f ea 40 8d 3e
       -0.47592914 -0.15842469 0.88093805 0.27588588
0002a0 e9 ef c5 3c b6 fa 02 3e 87 0e a0 be f1 39 e3 3e
       0.02416225 0.12790951 -0.31261083 0.44380143
0002b0 c5 b6 03 bf f2 2d ad be 54 be 4a be 1a 58 24 bf
       -0.5145076 -0.33824116 -0.19799167 -0.6419693
0002c0 a9 e2 40 bf 5e 69 cc be 43 57 4e bf 3f ea 9b 3e
       -0.75345856 -0.3992414 -0.806019 0.30452153
0002d0 c8 88 21 bf 8c 88 5e bf b3 c2 f4 3e 79 35 88 3e
       -0.63099337 -0.86927104 0.47804794 0.26603296
0002e0 1e 5e 49 3e 64 ab b2 be 43 2b 07 3f 70 d1 29 3f
       0.19664809 -0.34896386 0.5280039 0.663352
0002f0 d1 43 12 3f 81 1c 31 3d a2 99 de bd 9f 98 2c bf
       0.5713473 0.043240074 -0.10869147 -0.6742038
000300 89 ae 62 3f 4f 40 f2 3e 1b 89 55 3e aa 36 43 3e
       0.8854757 0.4731469 0.20853083 0.19063821
000310 5d bb 6c bf cc 59 bd bd 64 52 0e 3f 2a de ae 3e
       -0.92473394 -0.09245643 0.5559447 0.34153873
000320 d4 ec 94 bf 00 76 be 3e 7c 4e 8f 3e 9d 03 1d 3e
       -1.1634774 0.37199402 0.27989566 0.1533341
000330 f2 39 b4 3b a1 2b 03 be eb 98 8f 3f 52 f0 22 be
       0.0055000717 -0.12809612 1.1218542 -0.15911987
000340 7e da ac 3e 7a 05 4b 3f bc 9a df be 71 37 ba 3e
       0.33760446 0.7930523 -0.4367274 0.36370423
000350 13 9b 88 3f 67 1d 3d bf ec 45 95 3d 96 ae 18 3f
       1.0672325 -0.7387299 0.07288727 0.59641397
000360 b7 93 32 3f bc 0e e1 bf 33 21 6a bf 87 72 4b 3f
       0.69756645 -1.7582622 -0.9145691 0.7947163
000370 70 73 31 bf 0f f9 9f bd d2 10 92 bf 43 a7 04 bf
       -0.6931677 -0.07811176 -1.1411383 -0.5181772
000380 9e 35 84 3f 8e 93 05 bf e8 5f c9 be 68 ae 9e 3d
       1.0328863 -0.52178276 -0.39330983 0.07748109
000390 7c d5 bc bf 75 41 7d 3d a8 1a 8f 3c ad bc c0 be
       -1.475265 0.061830003 0.017468765 -0.37643948
0003a0 da f7 24 3f 2a 05 4e 3f 45 43 2d bf f6 b2 6d bf
       0.6444069 0.8047663 -0.6768077 -0.928512
0003b0 af 78 c5 be e0 ab 24 bf 0d c5 ad bd 41 9f 5a 3f
       -0.38568637 -0.6432476 -0.0848485 0.8539925
0003c0 13 4a 1d bf 60 49 92 be b2 7a 6e be bf ce 0f bf
       -0.61441153 -0.28571606 -0.23288992 -0.56174845
0003d0 5a 2c ef 3e eb a3 4d bf 43 c8 78 bf 90 eb 06 bc
       0.46713525 -0.80328244 -0.97180575 -0.008234873
0003e0 4d 08 78 3f b9 0c 41 3f 4f a3 7d bd 5e c4 82 bf
       0.96887666 0.7541004 -0.06192332 -1.0216177
0003f0 0d 6d 0a bf 20 5b 97 3e a2 10 36 3e f9 6e 36 be
       -0.5407265 0.2956171 0.17779782 -0.1781577

221 f4 [2, 128, 32]
000000 ef bc d6 bf e7 31 01 3f 2c a5 29 bf d9 73 52 bf
       -1.6776408 0.5046677 -0.6626766 -0.8220802
000010 33 d6 a3 bf fb 6e e9 be e5 b2 4c be 2b 41 e9 be
       -1.2799743 -0.45592484 -0.19990118 -0.45557532
000020 31 89 ff 3d ea 57 a6 be 1f b2 09 bd 49 bb 23 be
       0.12477339 -0.32488948 -0.033617135 -0.15989412
000030 f3 f7 9e bf 7c f9 83 bd 30 e6 b4 3f 76 0d ca be
       -1.2419418 -0.0644407 1.4132748 -0.39463395
000040 0f 7d d9 be 11 6b 8b bd 05 5a 5c 3f 61 02 82 bf
       -0.42478225 -0.06807531 0.8607486 -1.0156976
000050 fa 7c 3e 3d ec 21 9a bf 14 d4 8d be c4 95 0c 3f
       0.046505906 -1.2041602 -0.27700865 0.54916024
000060 e2 3e 4a 3f a6 cf 6f bf 1c e9 b0 be e2 8f db bd
       0.790022 -0.9367622 -0.34552848 -0.10720803
000070 0b 42 de be 7a 68 70 bf 1e 46 3f be 95 63 27 bf
       -0.43409762 -0.9390942 -0.18679091 -0.65386325
000080 cd 62 d9 3e 2b b1 3b be 62 f9 f5 bd a3 19 d0 be
       0.42458192 -0.18329303 -0.120104566 -0.4064456
000090 10 f4 71 3f 60 66 0d 3f a7 c3 be be a9 6a a2 3e
       0.94513035 0.55234337 -0.37258646 0.31722
0000a0 a1 45 aa be f5 9b 09 3f a8 fe fc 3e 01 ae 0d 3f
       -0.33256248 0.53753597 0.49413037 0.55343634
0000b0 3f 75 82 bd a0 d2 a5 be 1d a8 ce be f1 d3 2c 3f
       -0.06370019 -0.32387257 -0.40362635 0.67510897
0000c0 11 9d 2f 3e e9 c7 15 bf 6a a2 88 bf fc 72 fd be
       0.1714976 -0.58508164 -1.0674565 -0.4950179
0000d0 43 48 63 be 79 68 81 3f d8 32 0c bf 91 b9 d2 3d
       -0.22195534 1.0110008 -0.5476508 0.102893
0000e0 16 67 45 bf 08 5e e3 3e 29 21 f1 bd df 7b 1e 3f
       -0.7711042 0.44407678 -0.11773903 0.6190776
0000f0 6b 54 0b 3f 6b 47 83 be 4a 68 d0 3e 9e 6a 61 3e
       0.54425687 -0.25640425 0.40704566 0.22013327
000100 9f cb 55 bf b8 e0 95 bd 1f 21 37 3f 23 25 f7 3e
       -0.83513826 -0.07318252 0.71534914 0.4827052
000110 15 ac b8 be db d3 3a bf 4b 07 03 bf c9 27 49 bd
       -0.36068788 -0.72979516 -0.51183003 -0.049110208
000120 f7 e0 0a 3f b3 32 bb 3e 31 e4 bb be 8c a6 ad be
       0.5424952 0.36562118 -0.36697534 -0.33916128
000130 ea be 02 3e 99 0d 20 3d 3a 2c 24 bf d4 b8 19 3f
       0.1276814 0.039075468 -0.64129984 0.6004765
000140 63 d6 39 bf 6c 3d f4 3e f1 c8 c6 bc d6 0f e2 3e
       -0.72592753 0.4770311 -0.024265738 0.44152707
000150 ae 40 53 3e 84 2e 16 be 46 95 88 3d 83 4a f3 bd
       0.20630142 -0.14666182 0.06669097 -0.11879446
000160 51 e3 59 3e 2a f3 c5 3e ff 5d 70 3e 0f 09 fe 3e
       0.2127812 0.38662082 0.23473357 0.49616286
000170 55 20 ee be 34 07 19 be 77 08 85 bc ce 45 31 3e
       -0.46509042 -0.14944154 -0.016239388 0.17311785
000180 c3 7e b1 be 19 7e 25 3f 27 77 b7 3e 8f cc 81 3e
       -0.34667024 0.64645535 0.35833094 0.25351378
000190 01 5b 68 be 19 f4 da be 15 9b 7a 3e e5 91 a4 3f
       -0.22690965 -0.42764357 0.24473222 1.2857023
0001a0 12 29 60 be f2 89 e0 3e b3 f8 6a bf c9 56 24 bf
       -0.21890667 0.43855244 -0.91785735 -0.64194924
0001b0 75 db 75 3f 71 bc fb bd 1c b0 b1 be f7 de 65 3e
       0.9603799 -0.12291802 -0.34704673 0.22448336
0001c0 83 f9 91 3d ca 4e f3 be 53 82 b6 be 1d 85 84 3f
       0.07127669 -0.4752105 -0.35646304 1.0353123
0001d0 5e d7 97 3f 12 70 82 bf c7 71 ce 3d cc 93 32 3f
       1.18626 -1.0190451 0.10080295 0.6975677
0001e0 fe b7 24 3e 31 cf ee be 83 c8 89 bf 89 9f 9a 3e
       0.16085812 -0.4664245 -1.0764316 0.3019984
0001f0 23 9a e0 be 7e e9 ca 3e 35 40 e3 be 4f 68 b3 be
       -0.43867597 0.39631265 -0.44384924 -0.3504052
000200 7b aa 75 3e 44 86 25 39 b0 12 d2 3e 22 4d cc bc
       0.23990814 0.00015785644 0.41029882 -0.024939124
000210 30 af 95 bf 9c 2f 21 bf 56 bb 1a 3d 01 5d 56 bf
       -1.1694088 -0.6296327 0.037776314 -0.8373566
000220 32 ed d1 3c 67 61 8c be db 2c 52 bf a7 86 35 bf
       0.025625799 -0.27418062 -0.82099694 -0.7090859
000230 f9 a2 4a bf d1 1e bb 3f 4d 1d 36 3f 35 31 84 be
       -0.79154927 1.461878 0.7113846 -0.25818792
000240 08 4b 3c 3e b9 42 66 3e 19 51 d4 3e df dc 0c 3f
       0.18387997 0.2248639 0.41468123 0.5502452
000250 0f 4e 7f bf 9f aa 3a bf 41 25 89 3f 84 4a 1d 3f
       -0.9972848 -0.729166 1.0714494 0.61441827
000260 19 61 70 3f e8 e3 da be f8 66 f5 bd 83 58 78 bc
       0.9389816 -0.42752004 -0.1198253 -0.015157822
000270 a1 ce 16 be be a9 31 3d 83 1e 26 3f 17 c5 5e bf
       -0.1472726 0.04337477 0.6489031 -0.87019485
000280 74 1e 9a 3e a4 3d 67 3f a5 5e 2f 3e 84 2a 9b 3f
       0.3010136 0.9032843 0.17125948 1.212235
000290 ce 56 0f 3f 70 4f 0f bf b6 90 18 bf 0b 1f 45 3e
       0.5599183 -0.55980587 -0.5959581 0.19250123
0002a0 95 6f 65 3e 09 5d 02 3f 92 6f d6 be a5 88 94 3f
       0.22405846 0.5092321 -0.41881996 1.1604201
0002b0 2b 6b ad 3e 32 86 1c bd 15 84 c5 be 70 4b 62 3f
       0.33870825 -0.038213916 -0.38577333 0.8839636
0002c0 bd 07 34 be 27 f4 02 3f 2c 17 9e 3e dc 8c d7 be
       -0.17581077 0.51153797 0.30877054 -0.42099655
0002d0 1a fc 03 3f a2 e6 67 3d 3b 09 58 3f a2 5e d3 3d
       0.5155655 0.056616433 0.84389085 0.10320784
0002e0 59 53 7a bf c0 11 1b bf a2 7d c9 ba f3 4d 95 3f
       -0.9778343 -0.6057396 -0.0015372525 1.1664413
0002f0 0a 77 92 be d8 d9 90 3f 44 1c b3 bf 70 fb 99 bf
       -0.28606445 1.1316481 -1.3993001 -1.2029858
000300 1b 65 1c be 43 42 4b 3f 73 30 66 be 03 56 55 3f
       -0.15272944 0.7939798 -0.2247942 0.8333437
000310 b6 89 13 bf 7e fe 10 be 98 74 56 3f ca 31 b4 be
       -0.57632005 -0.14159581 0.8377166 -0.35194236
000320 74 b4 79 3f 0a e1 42 bf 94 2b 92 be 1d 04 ca bd
       0.97540975 -0.7612463 -0.28548872 -0.09864066
000330 d1 2b 65 bf a1 5a 8a 3f 00 e7 aa 3e 1f de b3 3c
       -0.89519984 1.0808908 0.33379364 0.021956502
000340 4f 7c b3 be 8a 38 03 3f 57 a6 c2 3f 05 d3 3f 3f
       -0.35055777 0.51258147 1.5207013 0.74931365
000350 17 a5 94 bc 7b 07 48 bf 6f 12 1d 3f c1 d4 b4 be
       -0.018145127 -0.78136414 0.6135625 -0.35318568
000360 52 a4 32 3f cf 05 5c bf 50 6d d0 3e 8d 2c d8 bf
       0.6978198 -0.85946363 0.407084 -1.6888596
000370 d6 05 86 be 48 3f b1 be e6 5d 05 bf 05 1b b5 be
       -0.26176327 -0.34618592 -0.520964 -0.35372177
000380 8c 6a 25 3f ca 9e 38 3d ab 5d 20 3e 6e 05 06 3d
       0.646157 0.045073308 0.15660731 0.032720022
000390 ce 11 ee 3d 15 88 27 3e d3 cf 5c bd b2 18 09 3f
       0.1162449 0.16360505 -0.053909134 0.5355331
0003a0 18 6a 00 bf bc d0 84 bd 79 ea 2f 3f e5 02 1a 3f
       -0.50161886 -0.064851254 0.6871715 0.60160667
0003b0 23 3e 1f 3f 78 51 78 3e 4b ff 33 bf 50 c4 4c 3e
       0.6220419 0.24249828 -0.7031142 0.19996762
0003c0 c0 6d 0b 3e 0b 64 09 3f ea 4c 85 be 2f f2 0b bf
       0.13616085 0.5366828 -0.26035243 -0.5466642
0003d0 46 d1 06 bf 1e 62 9a 3f b1 38 eb be 34 a2 95 be
       -0.52663076 1.2061193 -0.4594169 -0.29225314
0003e0 cb d6 f5 be 79 2b d9 be 97 93 7f be a9 0b 7d 3d
       -0.48015437 -0.4241598 -0.24958645 0.061778698
0003f0 20 1c b1 3c 28 6e 10 3f 0a d7 11 bf 6a 35 ea be
       0.021619856 0.56418085 -0.5696875 -0.45743877

222 f4 [2, 256]
000000 21 98 06 3f 21 99 b4 3c 92 eb 37 bd 90 33 7e 3f
       0.5257588 0.022045674 -0.04490239 0.9929743
000010 31 46 bc 3e c7 3a 10 3d 06 7d d2 3f 92 d6 2d 3e
       0.36772302 0.035212304 1.6444404 0.16976383
000020 f6 53 8b 3e f3 b8 e0 3d ef 9a 26 3f 2d e4 06 3e
       0.27212495 0.10972776 0.6508016 0.1317298
000030 1a ef 07 3e 44 09 bb 3e c7 ba 0c 3e b4 93 e7 3c
       0.13274804 0.36530507 0.13743125 0.028268673
000040 8f f0 13 3f cd d6 37 3f 2e c4 64 3e 38 89 24 3f
       0.5778894 0.71812135 0.22340462 0.6427188
000050 34 9e e8 3d e8 a8 8a 3e aa e5 ae 3e f8 67 01 3f
       0.113583 0.2708199 0.34159595 0.5054927
000060 4e 0b 3c 3e 24 b5 76 3e ce 22 5d 3e 2e 36 88 3e
       0.18363687 0.24092537 0.21595308 0.26603836
000070 5d ff 16 3e 59 30 31 3e f2 58 e8 3e 76 8b f7 3d
       0.14745851 0.173036 0.4538036 0.12087147
000080 f2 f0 f6 3e 01 a7 81 3d 4d 65 17 be 95 42 68 3f
       0.48230702 0.063306816 -0.14784737 0.90726596
000090 17 7d 4f bc 74 48 8f bd 0f 40 ad 3f fd a8 50 3e
       -0.012664101 -0.06996241 1.3535174 0.20376964
0000a0 40 f3 89 3d 08 61 08 be 8f 30 17 3f 4b e9 ff 3d
       0.067358494 -0.13318264 0.5905847 0.12495669
0000b0 ae db d5 bd db b7 5a 3e d0 a0 01 be 5d c5 9a be
       -0.10442291 0.21359198 -0.12659001 -0.302287
0000c0 3f 14 33 3f 95 1f 97 3e 02 12 49 3e e6 43 0a 3f
       0.6995277 0.29516283 0.19635776 0.54009855
0000d0 a5 2d 50 bd bc 5e c7 3e be c5 37 3e 6c e6 f9 3d
       -0.05082478 0.38939464 0.17946526 0.122021526
0000e0 ea 66 0d be 19 7c 88 3c 4e 45 90 3e b6 e8 35 bd
       -0.1380879 0.016660737 0.28177875 -0.044411384
0000f0 1a f4 11 3d 5d 73 86 3e b0 0c d4 3e 33 9a fc bd
       0.035633184 0.2625989 0.4141593 -0.12334099
000100 70 35 15 bf 9e 1d 7a be 3c 8a f7 bd 4c dc 2c bf
       -0.58284664 -0.2442536 -0.12086913 -0.67523646
000110 f8 de f7 be 83 2e d0 be f7 7d d7 be 56 4c e8 be
       -0.484123 -0.40660486 -0.4208829 -0.4537074
000120 b6 44 c0 be d9 84 cc be 56 f7 33 bf a4 80 6f be
       -0.37552422 -0.39945105 -0.7029928 -0.23388916
000130 ac 59 dc be b4 42 70 be f1 b8 81 be 27 25 f7 be
       -0.43037164 -0.23462945 -0.25336412 -0.48270532
000140 6a 6c 42 bf 66 51 84 be 77 b2 c9 be 49 cd 13 bf
       -0.75946677 -0.25843352 -0.3939397 -0.57735115
000150 65 3a 5b be 12 89 9d be 02 4b 0f bf 80 8b 33 bf
       -0.21408994 -0.3076864 -0.5597383 -0.70134735
000160 19 1d b1 be b0 8b 98 be 36 fa 1b bf 22 49 03 bf
       -0.34592512 -0.29794073 -0.60928667 -0.51283467
000170 59 a7 e1 be 06 59 28 bf 6c 26 a2 be 7f 72 31 bf
       -0.4407299 -0.6576084 -0.3166994 -0.6931533
000180 b2 d6 ab 3d f6 ce bf 3d db 9b 56 3d bd 58 c8 3d
       0.08390559 0.093656465 0.05239473 0.097825505
000190 2d 07 5f be b7 44 f5 bd 54 cb 8b bc e3 33 5b bd
       -0.21780081 -0.11975997 -0.017064728 -0.05351628
0001a0 a9 80 c3 bd 9b 6b f1 bd ca 16 c5 bc 57 30 29 bd
       -0.09546024 -0.11788102 -0.024058718 -0.041305866
0001b0 ab 24 06 3d 4f 16 98 bd 83 72 10 3e da 9a cc bc
       0.032749813 -0.0742613 0.14106183 -0.024976183
0001c0 cb 75 21 3d d7 c9 0d be c4 13 f6 bd 1e 51 14 3e
       0.039418977 -0.13846527 -0.12015489 0.14484069
0001d0 a8 7a 63 3c ed bb 99 bd 53 3c b5 bb 77 af 98 3d
       0.013884224 -0.07506547 -0.005530873 0.07455342
0001e0 41 e0 54 3e 74 ec 3e bd f4 29 0a be 65 f5 29 3e
       0.20788671 -0.046612218 -0.13492566 0.16597517
0001f0 9d 48 9c bd 72 02 54 bd 1a c2 a7 bd 2a 6a c1 3d
       -0.076310374 -0.051760145 -0.08191319 0.09444077
000200 2a 4b 7f 3e 49 29 ce 3d 7c ca 31 be 32 cb 7d 3f
       0.24931017 0.10066468 -0.17362398 0.99138176
000210 93 79 7c 3d b7 dc 93 be e3 59 ce 3f e2 ec 98 3e
       0.06163938 -0.2887933 1.6121181 0.29868227
000220 f9 d1 ee 3e a6 0d 88 bc 32 80 a5 3e 55 7d f4 3d
       0.4664457 -0.01660807 0.32324368 0.11937968
000230 90 5c 2c 3d 91 d7 e7 3e 18 67 d1 3c 33 be 9e 3c
       0.042080462 0.45281652 0.025561854 0.019377803
000240 93 c1 2d 3f f5 2a 37 3f cc a7 4c 3e 6c e2 d4 3e
       0.67873496 0.7154992 0.19985884 0.41578996
000250 cd f8 6f 3e 3e a8 ea 3e 02 95 af 3e cd 91 04 3f
       0.23434754 0.45831484 0.3429337 0.51784974
000260 aa b1 3e 3e 56 52 37 3e 30 fc b4 3e 0b c6 39 3e
       0.18622461 0.17902502 0.35348654 0.18141954
000270 e7 e5 8e 3e 73 2e 4e 3e 34 f9 97 3e 42 38 b5 3d
       0.27909777 0.20134906 0.29682314 0.08848621
000280 9c 25 65 3e ce 28 36 bd 6b 8d 29 3d ca 76 1e 3f
       0.22377628 -0.044472508 0.041394632 0.6190001
000290 62 37 a2 3d b7 7e 5a bd d7 42 a2 3f 36 3f d9 3a
       0.0792072 -0.0533435 1.2676648 0.0016574624
0002a0 7a a0 4c bc fe c2 50 be 88 5a 24 3f 5b e3 f9 3b
       -0.0124894325 -0.20386884 0.6420064 0.00762598
0002b0 d0 9d 17 3e 39 aa 11 3e fb c4 e8 bd 03 68 b2 be
       0.14806294 0.14225091 -0.11365696 -0.3484498
0002c0 64 5e 0b 3f 98 47 1d 3f 4b 3a 6e 3d 73 c4 07 3f
       0.54440904 0.6143737 0.05816106 0.5303413
0002d0 b3 16 a2 3d f1 3b c6 3e 08 8c 40 3e b8 12 c7 3e
       0.07914486 0.38717607 0.18803418 0.3888147
0002e0 9b f0 f9 3d 23 01 5a 3e d4 e3 b4 3e cc 6d 8f bd
       0.12204095 0.21289496 0.3533007 -0.07003364
0002f0 10 55 42 3d 77 5e 88 3e b1 51 ab 3e cd ed 0b be
       0.047444403 0.2663457 0.33460763 -0.13664933
000300 d1 00 2b bf 9c 76 66 be 30 44 7a be 42 8c f6 be
       -0.6679812 -0.22506183 -0.24440074 -0.48153883
000310 59 a1 fc be 24 22 c9 be cc 98 1f be b3 88 17 bf
       -0.49341848 -0.3928386 -0.15585631 -0.5919296
000320 2e 7d d0 be 7c 7e 9e be 88 86 38 bf bc 60 ec be
       -0.40720505 -0.30955875 -0.7208028 -0.46167552
000330 54 f3 1f be 71 4a 9c be f1 9b 96 be 3d 0f 98 be
       -0.15620166 -0.30525544 -0.2941585 -0.29699126
000340 d1 b4 59 bf 1a 1d b3 be 44 ae 9c be 12 5c 1f bf
       -0.8504153 -0.3498314 -0.30601704 -0.62249863
000350 5f 83 83 be 6c f5 0a bf 39 c8 c9 be 5f 0b 48 bf
       -0.25686166 -0.54280734 -0.3941057 -0.7814235
000360 75 1e b4 be ae a8 0e be 91 a4 28 bf df 8c 13 bf
       -0.35179487 -0.13931534 -0.6587611 -0.5763683
000370 06 e0 0e bf b4 80 40 bf 28 b0 a5 be d4 8e ed be
       -0.5581058 -0.75196385 -0.3236096 -0.46398032
000380 94 4d 05 be 39 69 f2 3c 20 17 0d 3d 8c e0 10 be
       -0.13017875 0.02959119 0.03444588 -0.14148158
000390 9b 6b c1 3d 7b ff 39 bd ba 62 58 3d b5 20 02 3e
       0.09444352 -0.04540966 0.052828528 0.12707789
0003a0 34 87 10 3e 6a a6 38 3c de 2f 95 bd d3 d7 c7 bd
       0.14114076 0.011270145 -0.072845206 -0.09757962
0003b0 64 f6 e2 3d fe 60 25 bd 39 02 a0 bc b4 7e f3 3d
       0.110821515 -0.040375702 -0.01953231 0.11889401
0003c0 0a 56 56 bd d4 9b 0b 3d 4a ce e3 3d 52 6f de bc
       -0.052328147 0.034084156 0.11123331 -0.027152691
0003d0 94 c6 35 3e c9 07 53 bd 7f 88 dc 3b 78 3b d7 3c
       0.17751533 -0.051521096 0.006730139 0.026273474
0003e0 9a cb 6a bd 52 1c 22 3c 2b 12 c9 3b 84 7b 0b be
       -0.057323076 0.009894447 0.006136199 -0.13621336
0003f0 7a 2e e9 b9 9b 29 cc bc f5 5a 80 3c 0b 76 ec bd
       -0.0004447585 -0.024922183 0.015668372 -0.115459524

223 f4 [2, 1, 32]
000000 00 00 00 00 00 00 00 00 00 00 00 00 00 00 00 00
       0.0 0.0 0.0 0.0
000010 00 00 00 00 00 00 00 00 00 00 00 00 00 00 00 00
       0.0 0.0 0.0 0.0
000020 00 00 00 00 00 00 00 00 00 00 00 00 00 00 00 00
       0.0 0.0 0.0 0.0
000030 00 00 00 00 00 00 00 00 00 00 00 00 00 00 00 00
       0.0 0.0 0.0 0.0
000040 00 00 00 00 00 00 00 00 00 00 00 00 00 00 00 00
       0.0 0.0 0.0 0.0
000050 00 00 00 00 00 00 00 00 00 00 00 00 00 00 00 00
       0.0 0.0 0.0 0.0
000060 00 00 00 00 00 00 00 00 00 00 00 00 00 00 00 00
       0.0 0.0 0.0 0.0
000070 00 00 00 00 00 00 00 00 00 00 00 00 00 00 00 00
       0.0 0.0 0.0 0.0
000080 00 00 00 00 00 00 00 00 00 00 00 00 00 00 00 00
       0.0 0.0 0.0 0.0
000090 00 00 00 00 00 00 00 00 00 00 00 00 00 00 00 00
       0.0 0.0 0.0 0.0
0000a0 00 00 00 00 00 00 00 00 00 00 00 00 00 00 00 00
       0.0 0.0 0.0 0.0
0000b0 00 00 00 00 00 00 00 00 00 00 00 00 00 00 00 00
       0.0 0.0 0.0 0.0
0000c0 00 00 00 00 00 00 00 00 00 00 00 00 00 00 00 00
       0.0 0.0 0.0 0.0
0000d0 00 00 00 00 00 00 00 00 00 00 00 00 00 00 00 00
       0.0 0.0 0.0 0.0
0000e0 00 00 00 00 00 00 00 00 00 00 00 00 00 00 00 00
       0.0 0.0 0.0 0.0
0000f0 00 00 00 00 00 00 00 00 00 00 00 00 00 00 00 00
       0.0 0.0 0.0 0.0

224 f4 [2, 1, 32]
000000 00 00 00 00 00 00 00 00 00 00 00 00 00 00 00 00
       0.0 0.0 0.0 0.0
000010 00 00 00 00 00 00 00 00 00 00 00 00 00 00 00 00
       0.0 0.0 0.0 0.0
000020 00 00 00 00 00 00 00 00 00 00 00 00 00 00 00 00
       0.0 0.0 0.0 0.0
000030 00 00 00 00 00 00 00 00 00 00 00 00 00 00 00 00
       0.0 0.0 0.0 0.0
000040 00 00 00 00 00 00 00 00 00 00 00 00 00 00 00 00
       0.0 0.0 0.0 0.0
000050 00 00 00 00 00 00 00 00 00 00 00 00 00 00 00 00
       0.0 0.0 0.0 0.0
000060 00 00 00 00 00 00 00 00 00 00 00 00 00 00 00 00
       0.0 0.0 0.0 0.0
000070 00 00 00 00 00 00 00 00 00 00 00 00 00 00 00 00
       0.0 0.0 0.0 0.0
000080 00 00 00 00 00 00 00 00 00 00 00 00 00 00 00 00
       0.0 0.0 0.0 0.0
000090 00 00 00 00 00 00 00 00 00 00 00 00 00 00 00 00
       0.0 0.0 0.0 0.0
0000a0 00 00 00 00 00 00 00 00 00 00 00 00 00 00 00 00
       0.0 0.0 0.0 0.0
0000b0 00 00 00 00 00 00 00 00 00 00 00 00 00 00 00 00
       0.0 0.0 0.0 0.0
0000c0 00 00 00 00 00 00 00 00 00 00 00 00 00 00 00 00
       0.0 0.0 0.0 0.0
0000d0 00 00 00 00 00 00 00 00 00 00 00 00 00 00 00 00
       0.0 0.0 0.0 0.0
0000e0 00 00 00 00 00 00 00 00 00 00 00 00 00 00 00 00
       0.0 0.0 0.0 0.0
0000f0 00 00 00 00 00 00 00 00 00 00 00 00 00 00 00 00
       0.0 0.0 0.0 0.0

267 f4 [2, 128, 64]
000000 13 dc 06 3d 70 f9 0a be 3f 67 0c 3b 89 32 c3 bc
       0.032924723 -0.13571715 0.0021423844 -0.023827808
000010 44 6e 8c be 49 47 47 bd 53 49 b8 be aa 3f 9a be
       -0.27427876 -0.048651967 -0.35993442 -0.30126697
000020 88 25 d0 3e d3 e4 db bd df 56 8a 3e e7 7c 6a be
       0.40653634 -0.10737004 0.27019402 -0.22899209
000030 02 de 8a be 57 be a5 3e ab 7d 75 be af 55 f9 bd
       -0.27122504 0.3237178 -0.2397372 -0.12174546
000040 32 0b 25 3e 72 d0 bd 3d 71 b9 35 bd 51 b7 30 bc
       0.16117552 0.092682734 -0.044366304 -0.010785894
000050 64 5b 71 3c 26 2c 0c be d2 a5 e6 bd 4c 35 80 3d
       0.014731262 -0.13688716 -0.112620965 0.062601656
000060 2b ff 6f 3e 8a 6e 14 be 3a d7 5a 3c a6 09 4b 3d
       0.23437183 -0.14495292 0.013356978 0.04956975
000070 30 90 97 be 9b 96 99 3d 8d 64 5a 3d a9 37 c5 be
       -0.29602194 0.07499429 0.05331855 -0.38519028
000080 29 75 30 bd 77 04 1f 3e 68 cb bf be 97 e2 fb bc
       -0.043080483 0.15529047 -0.37459874 -0.030747695
000090 cd 70 28 3f ed 26 b3 3d 2c dc 26 be 9b 10 cb 3e
       0.6579712 0.08747659 -0.16294926 0.39661106
0000a0 14 dc 89 be 23 c5 c9 be 1e 35 d7 3d fd 78 47 3e
       -0.2692572 -0.39408216 0.10508178 0.19479747
0000b0 0e d0 1a 3e 1c cb 83 be 6f 4c ca 3d 0d 5a b5 3d
       0.15118429 -0.25740898 0.0987786 0.088550664
0000c0 e9 97 59 3e 4e cd 01 3e 8e 44 2f 3e de 9a c4 bd
       0.21249355 0.12675974 0.17115995 -0.09599851
0000d0 49 b6 6c 3e 50 59 14 bc fd 21 95 be 0c e0 28 bf
       0.23116411 -0.009054497 -0.29127494 -0.6596687
0000e0 34 65 0f 3e 55 02 3d 3c 41 96 3d be 6d d0 db 3d
       0.1400345 0.0115362005 -0.18514349 0.107331134
0000f0 d8 78 1e be f4 63 be be 07 90 39 3d e3 5d dc bd
       -0.15475786 -0.37185633 0.04530337 -0.10760095
000100 53 6d d9 bd 2e 0e 24 3f 7b ff 32 3f 89 8c c2 bd
       -0.10616555 0.64084136 0.6992108 -0.09499461
000110 56 4f e9 bc 38 10 ae bf cf d9 96 3c 34 f4 1c 3f
       -0.028480213 -1.35987 0.018414406 0.61310124
000120 90 53 8b 3f 2c e8 f8 3d fe 99 aa be 92 16 ff be
       1.0884876 0.12153658 -0.33320612 -0.49821907
000130 f3 93 a5 3f 97 17 30 bf 46 f5 9f 3f 44 d2 84 be
       1.2935776 -0.68785995 1.2496727 -0.2594167
000140 01 ed 01 3e 98 c6 66 bf bf 18 0c bf 0a 4d 15 3e
       0.12688066 -0.9014678 -0.5472526 0.1458017
000150 cf 40 54 3f f1 65 bc be d4 1e 1f be ba ec 30 3f
       0.8291139 -0.36796525 -0.15539104 0.69111216
000160 68 8a 73 3f f9 fd 8f 3e 8b 2a 91 bf 28 79 f6 3e
       0.95133066 0.28123453 -1.1341108 0.4813931
000170 fe cb 62 bf ec 2c 20 bf a7 85 43 be 8e 27 f4 3d
       -0.8859252 -0.62568545 -0.19093953 0.11921607
000180 bc e8 29 3e 6f a0 71 be 6f df 19 be b1 97 9f 3e
       0.16592687 -0.23596357 -0.1502664 0.3117042
000190 85 78 27 be 03 41 b6 be 13 6b 16 bf f9 4c 80 bf
       -0.16354568 -0.35596475 -0.5875713 -1.002349
0001a0 b1 79 74 bd d4 81 0b 3f 54 da 8e be f2 fa 3a bf
       -0.059686366 0.54494977 -0.27900946 -0.7303916
0001b0 36 b9 ec bd 3b 27 f7 bd 11 b6 46 3f dd 49 8d be
       -0.11558764 -0.120680295 0.7762156 -0.27595416
0001c0 4c d8 5d 3e af 85 9a bf 71 87 f0 be e4 38 27 3f
       0.21664542 -1.2072047 -0.46978334 0.65321183
0001d0 4f b7 e0 bd 44 19 0a be 5e 2c 19 3f d2 98 dd be
       -0.10972463 -0.134862 0.59833324 -0.43280655
0001e0 5c 0d e6 be 09 81 95 bf 6a 31 98 3e 9b ec 36 bd
       -0.44932067 -1.1680003 0.297252 -0.04465924
0001f0 12 98 1a 3e ab 10 09 3f 27 99 04 3f af 01 0a bf
       0.15097073 0.5354106 0.5179619 -0.5390882
000200 28 3f bf be ce 28 51 3f 58 63 03 3f 3e 2e c0 be
       -0.37352872 0.8170289 0.5132346 -0.3753528
000210 b0 37 b7 be 84 14 21 bf b6 7e 4f 3e 60 18 9c 3f
       -0.35784674 -0.6292193 0.2026318 1.2194939
000220 19 76 41 bf 2d 78 dd 3d 28 8d bf be 4f a1 40 3e
       -0.7557083 0.10813937 -0.3741238 0.18811534
000230 5f e4 cc 3f 9b 8b 8a bf 7e ca e2 3f 5a 58 97 3e
       1.6007193 -1.0823854 1.7718046 0.29559594
000240 36 a1 57 3e a1 05 0a c0 b1 99 4e bf f8 ce b3 3e
       0.21057591 -2.1565936 -0.80703264 0.35118842
000250 b4 08 2d 3f ae 6c 0a 3f 24 ae 0a be 94 e6 7e 3f
       0.67591405 0.5407208 -0.13542992 0.99570584
000260 8a 1d c1 3e 58 6a aa bd 4b 85 b4 bf 72 0f c7 3f
       0.3771785 -0.08321065 -1.4103178 1.5551589
000270 38 54 eb bd 0b 5b 2f bf d6 a3 6d bf 6a 1c 1d bf
       -0.11490673 -0.68498296 -0.9282812 -0.6137148
000280 15 b2 a5 3d cf 6d 20 bf 14 2d 5e 3d 78 ce 4c 3d
       0.08090607 -0.62667555 0.05424221 0.05000159
000290 18 12 1f bc 26 de 86 be bb 00 87 be a3 09 9e bd
       -0.009708904 -0.2634136 -0.26367745 -0.07716682
0002a0 df ed 1e 3f fe 08 68 3f 5b 1a 06 bf b4 a8 5d bf
       0.6208171 0.9063872 -0.52383965 -0.86585546
0002b0 26 c8 1a bf 99 e3 c9 bd ea 1c 3c 3f cb 5c b6 be
       -0.6046165 -0.09857864 0.7348162 -0.3561767
0002c0 91 6c 04 3e 81 1e 87 be 77 bb 25 be 98 2a 89 3e
       0.1293204 -0.2639046 -0.16184793 0.2679031
0002d0 73 e9 55 3e 06 9f b9 be 5f 27 45 3f 24 af ab bc
       0.20889835 -0.36254138 0.770132 -0.020957537
0002e0 a7 c6 8d bd c5 90 1a bf 46 15 93 3e e8 4a b9 be
       -0.069226556 -0.6037715 0.28727168 -0.3618996
0002f0 a5 3d f3 3d e6 7f d5 3e 14 09 11 3f 94 f3 34 bf
       0.11876992 0.4169914 0.5665448 -0.7068417
000300 2a 94 a1 be dc 51 d3 3e 5c a1 00 3f 41 87 26 3e
       -0.31558353 0.4127339 0.50246215 0.16262533
000310 53 b6 e2 be 7c 45 ad bf 61 0a 82 3e 4e d5 b9 3e
       -0.44279727 -1.353683 0.25398543 0.3629555
000320 52 86 d6 3e 3c 77 ad 3e 13 67 12 bf 76 d4 b0 3d
       0.41899353 0.3388003 -0.5718853 0.08634274
000330 0a 1e 3e 3f bd 61 0e bf 70 72 65 3f 6c ca 41 3e
       0.74264586 -0.55617887 0.8962774 0.18924874
000340 2a c6 6c be fe c6 61 bf 59 04 93 be 73 72 3e 3f
       -0.23122469 -0.88194263 -0.28714254 0.74393386
000350 89 f0 ae 3e 14 25 5f bf d7 3d b2 3e 1e ac 05 3f
       0.3416789 -0.8716595 0.34812805 0.52215755
000360 3c 70 28 3f 49 1b 1e 3e ad 3b 7f bf a0 9d 3c 3f
       0.65796256 0.15440096 -0.99700433 0.73678017
000370 5f bc e5 be 2c d0 88 be ac f1 60 3e 09 ab 10 be
       -0.44870278 -0.26721323 0.2196719 -0.14127745
000380 f5 9b 91 3e 7b bd 07 be 2e 72 a1 3e 1c c6 ad 3e
       0.28439298 -0.13255875 0.31532425 0.33940208
000390 e3 d6 81 be 58 cd f0 be 1f f0 8b 3e 71 50 44 3d
       -0.25359258 -0.47031665 0.27331635 0.047928277
0003a0 c6 68 40 bd 84 a8 14 3f 03 2b 92 be ae a9 c1 be
       -0.04697492 0.58069634 -0.2854844 -0.37824768
0003b0 ce cb 9d bd b1 5a 0c be 23 c4 10 3f f3 c3 c0 bd
       -0.07704888 -0.13706471 0.5654928 -0.09412374
0003c0 a3 f5 39 be 87 89 f0 be d2 eb af ba 34 81 53 3e
       -0.18160109 -0.46979925 -0.001342172 0.20654756
0003d0 a0 b9 2a 3e 11 ac 4b be 3e ed 10 3f ab 51 8b 3e
       0.16672373 -0.19889857 0.56612 0.27210745
0003e0 93 e2 27 be 77 be 96 be 8d a5 94 3e f5 c5 49 be
       -0.16395025 -0.29442188 0.29032555 -0.19704421
0003f0 de 63 05 be 1e 94 db 3d 94 f2 01 3f f2 5c 1e 3d
       -0.13026378 0.107216105 0.5076077 0.03866286

268 f4 [2, 128, 32]
000000 06 0e d3 be 8f 62 47 3f 04 9a 21 3f b5 59 90 3e
       -0.41221637 0.77884763 0.63125634 0.2819344
000010 38 a2 ac bd aa 39 83 3e f7 f6 ab 3e 67 55 14 bf
       -0.08429378 0.25629932 0.33586857 -0.57942814
000020 e9 1f 42 be b1 82 5c 3e c4 ef 6c be 35 14 25 3e
       -0.18957485 0.2153423 -0.23138338 0.1612099
000030 b9 1c 36 be da 74 6a be c5 34 e2 3e c2 95 3f 3b
       -0.17784394 -0.22896138 0.44180885 0.002923355
000040 f0 a0 cc 3e e0 03 b7 3d e1 61 95 3d 94 39 bb 3b
       0.39966536 0.08936286 0.072940595 0.005713651
000050 02 01 1d bd 86 9b eb bd 4b f7 ab 3e 7d 1f 70 be
       -0.03833104 -0.11504273 0.33587107 -0.23449512
000060 a6 4d 01 3f 79 a9 71 be 51 0a 9a be 9e f0 48 3d
       0.5050911 -0.23599805 -0.30085996 0.049057595
000070 3e 1c 62 bc 7c 57 1b 3d d2 d3 ea bd 7f c2 7b 3c
       -0.013800679 0.03792523 -0.11466183 0.015366196
000080 91 00 25 3d 14 af ea be 28 21 d5 bc 08 52 05 3b
       0.040283743 -0.458367 -0.026016787 0.0020343084
000090 9d 3c 54 bf e1 9c 82 bd da 86 97 3e 89 26 79 3d
       -0.8290499 -0.063775785 0.2959507 0.060827766
0000a0 4e 26 43 be 81 58 26 3f 5a 60 84 bd 26 d8 47 bf
       -0.19057581 0.64978796 -0.0646369 -0.7806419
0000b0 6d e1 a6 3c d0 e7 7b be ef 6b cc 3e 1f d9 e6 be
       0.020371163 -0.24600148 0.39926097 -0.45087525
0000c0 a7 47 e5 3e 3f fe 22 bf fa 9a 99 3e 4d d0 43 3e
       0.4478123 -0.636692 0.3000105 0.19122429
0000d0 64 99 73 be a7 55 a2 3e 65 90 0c 3d 5b 81 63 3f
       -0.23788983 0.31705973 0.034317393 0.88869256
0000e0 09 89 d7 be 47 5b 71 bb a2 45 a8 be 25 48 24 3f
       -0.42096737 -0.0036828087 -0.32865626 0.64172584
0000f0 9d 46 a5 bc 98 e9 cf 3e e5 52 db be d3 31 cb bc
       -0.020175273 0.40607905 -0.4283668 -0.024804031
000100 61 f5 ca 3e f9 ea 96 3e 28 e5 43 be 7c f4 47 be
       0.39640334 0.29476145 -0.19130385 -0.19526857
000110 de a1 ea 3e e6 e6 e1 be 8d 4b b2 be 01 43 f1 be
       0.4582662 -0.44121474 -0.34823266 -0.47121432
000120 fe 28 3c be d5 fa 13 bf 40 ad 55 3e a6 a1 72 be
       -0.18375012 -0.57804614 0.20866871 -0.23694476
000130 04 3c 03 3f d0 f4 95 3c b7 48 7d be d0 37 5c bd
       0.5126345 0.018305212 -0.2473477 -0.053764164
000140 19 66 b4 bd 99 6d 0e be 4e c8 9a bb 0c dc 04 be
       -0.08808536 -0.13908996 -0.004723585 -0.12974566
000150 8d da 79 be e1 dc 95 3d d9 9c d8 3e 0a 4c e8 3e
       -0.24399777 0.0731752 0.42307165 0.45370513
000160 bb 78 aa be 96 07 02 3d 04 6f 27 3f 1c 83 c4 3e
       -0.33295235 0.031745516 0.6540377 0.3838128
000170 2c b5 e0 3e f6 d0 db 3d d7 ec 26 be cd b0 21 bb
       0.43888223 0.107332155 -0.16301285 -0.0024672032
000180 b8 f1 5f 3e 6c 13 8b 3e 17 43 98 3e c9 b1 45 3d
       0.21869552 0.27163255 0.29738685 0.048265252
000190 9c 19 18 be de b4 c0 be eb 34 0a be 4a 89 b0 be
       -0.14853519 -0.3763799 -0.13496749 -0.34479743
0001a0 54 43 67 3d 36 34 54 3e ff 3f cb 3e bc 3f 84 3a
       0.056460693 0.20723042 0.39697263 0.0010089795
0001b0 97 d2 74 be 54 62 af be 88 4a 24 bd 34 d5 55 3e
       -0.23908459 -0.34254706 -0.04011014 0.20882112
0001c0 15 eb 81 3e 5b de 25 3e cf f9 75 3e b4 c7 04 bf
       0.25374666 0.16198103 0.24021076 -0.5186722
0001d0 8b 56 98 be 71 1b bb 3e 91 46 65 be 44 47 b9 3e
       -0.29753527 0.36544374 -0.223902 0.36187184
0001e0 dd f9 15 3e 73 6b 64 bd 18 d3 d4 3d c8 c6 a8 3e
       0.14646097 -0.055766534 0.103918254 0.32964158
0001f0 75 33 e1 3e bd df c6 3e 73 e6 12 be f5 64 9f be
       0.4398457 0.38842574 -0.14345722 -0.31131712
000200 a4 ec 2a bf 24 ab 90 3e b6 0c a9 3f 53 0d 90 3e
       -0.66767335 0.2825557 1.3207004 0.28135166
000210 96 70 f5 be 84 c0 23 3f 7a 73 75 3f 9f e9 b1 3f
       -0.4793746 0.6396563 0.9587933 1.389942
000220 84 5d 97 bf 3f 8c db 3f 27 9e 00 bf 75 9a 06 bf
       -1.1825414 1.7152175 -0.5024132 -0.5257943
000230 5b 90 e7 3d 77 64 a0 3e d7 00 10 3e 53 3f 92 3e
       0.113068305 0.3132665 0.1406282 0.28563938
000240 61 55 e9 3f 3b 89 81 3e e5 e7 18 3f d0 c3 13 3f
       1.822918 0.2530001 0.5972884 0.5772066
000250 94 5b a7 bf 36 4d 85 be 26 a2 d5 be 9c c7 b6 bd
       -1.3074822 -0.2603547 -0.41725272 -0.08924791
000260 b9 b5 fa 3e 4a 02 16 bf ec fc 86 bf 26 1f dd 3e
       0.48966768 -0.5859724 -1.0545936 0.43187827
000270 aa fd bf 3e e9 3b 98 3d f6 f0 30 3d 25 40 17 be
       0.37498218 0.07433302 0.04319855 -0.14770563
000280 ae 7e 88 3c 42 f9 5d be f9 90 8f bd df 93 52 bf
       0.016661968 -0.21677116 -0.07010073 -0.82256883
000290 66 f0 54 be 7d cc 76 bd fe 35 96 3c cb a1 25 be
       -0.2079483 -0.06025361 0.018336292 -0.16175
0002a0 b9 ef 60 3e 3b a0 1e 3e 34 04 b6 bd 96 19 35 3d
       0.21966447 0.1549081 -0.088875204 0.044213854
0002b0 9b 10 87 3e 09 fa ab 3d f2 70 c1 be b6 28 88 be
       0.26379856 0.083973 -0.37781483 -0.2659356
0002c0 59 85 2a bd 72 e1 50 3e 27 2a 9c 3d 52 bb 1e 3e
       -0.041631076 0.203985 0.076252274 0.15501145
0002d0 73 9c 0f bd 13 12 6b bb d8 be 80 be 4c b7 0f 3e
       -0.03506131 -0.0035868927 -0.25145602 0.14034766
0002e0 07 eb 05 be eb 76 b1 bd ad c9 d9 bb e8 1d 31 3e
       -0.13077937 -0.0866526 -0.006646356 0.17296565
0002f0 89 47 88 bd 3a 2c 0e bd 3e b8 0a be 0a 67 f3 ba
       -0.06654269 -0.034710146 -0.13546845 -0.0018570137
000300 59 61 8b 3c 65 ac 3e bf dc c3 03 be ae 41 f7 3d
       0.017014192 -0.74481803 -0.12867683 0.12073074
000310 fe a2 45 bf df ec a1 3a e8 ac a5 3d 80 d1 36 3d
       -0.7720183 0.0012353918 0.0808962 0.04463339
000320 a9 63 14 bf 7b da 01 3f d9 bd 11 be f0 92 96 be
       -0.5796457 0.50724 -0.14232577 -0.2940898
000330 1e db 12 bd d8 d1 6f be ec 36 db be 56 e6 82 be
       -0.035853498 -0.23419893 -0.4281534 -0.25566357
000340 2e a4 aa 3e ac 17 09 3e 10 cc 11 3f 11 2e 9f 3d
       0.33328384 0.13387936 0.56952 0.07772458
000350 19 9a 7a bd 7d ff be 3c 93 99 56 3c dd c4 e3 bc
       -0.061182115 0.023315186 0.013098138 -0.027803833
000360 32 a0 0a 3f d5 01 88 bd 08 3b bd be 03 41 c9 3d
       0.5415069 -0.066409744 -0.369591 0.09826853
000370 8a 60 ed be 3b 12 8b 3e f6 c6 b5 3e 57 70 91 bc
       -0.46362716 0.27162346 0.35503358 -0.017753763
000380 c8 1f f4 3e c6 1e 0e be 93 bc 99 bc 9d 0a cf 3d
       0.47680497 -0.13878927 -0.018766677 0.10109446
000390 6f e0 74 be f2 42 dc be ac 64 6d be c3 f0 54 3e
       -0.2391374 -0.43019825 -0.23182935 0.20794968
0003a0 8e e0 30 bd 0b d9 e5 3a cc 35 e6 3e bb 89 de be
       -0.043182902 0.0017535997 0.4496292 -0.43464455
0003b0 9b d7 3a 3e c2 58 c8 be 0e 5b 42 3e d3 9c ba be
       0.1824631 -0.39130217 0.18980047 -0.36447772
0003c0 f4 8a 2b be e6 ae 27 be ac eb 41 3d 7d 71 45 bd
       -0.16752225 -0.16375312 0.047343895 -0.048203934
0003d0 a2 e1 9b be 6b cb ce 3e 0d 27 76 3e 6f 4b d8 3e
       -0.30445582 0.4038957 0.24038334 0.4224505
0003e0 9c b2 1b be af 02 b4 3e 54 1f 60 3d 8d 2f 0f 3e
       -0.15204853 0.35158297 0.054717377 0.13982983
0003f0 05 21 b9 3d 7b 7c 50 bc d2 01 38 bd ec 8c 0c be
       0.09039501 -0.012724991 -0.04492361 -0.13725632

269 f4 [2, 256]
000000 80 47 cf 3e 30 3c 0b bf 90 ab 1d bf 92 fc 2f bf
       0.40484238 -0.54388714 -0.6158991 -0.68744767
000010 cb 12 e2 3d fd aa c4 3e ce 3d 8b 3e ee f8 21 bf
       0.11038741 0.38411704 0.2719559 -0.6327046
000020 ae bc 0a bf 59 94 15 3e f7 5a e4 3e 28 66 8f be
       -0.5419415 0.14607371 0.4460065 -0.28007627
000030 f5 17 23 bf 6b 65 87 bd 44 e5 9f be 36 ea ad be
       -0.6370843 -0.06611141 -0.31229603 -0.3396775
000040 42 20 b3 be 04 7f 0c bf 53 f7 0b bf 88 ce 3d 3d
       -0.34985548 -0.5488131 -0.5467426 0.04633954
000050 2f b3 1d 3d 9b d5 00 3d d9 05 0e bf 1f 65 4e bd
       0.03850096 0.03145371 -0.5547767 -0.050389405
000060 b5 36 8c bf d2 5d 6c bc 1b 0e 01 bd 60 4f 83 be
       -1.0954195 -0.014426665 -0.031507593 -0.25646496
000070 59 87 9e be 35 60 b9 3d 2a f7 16 bf 0e 0b a9 bd
       -0.30962637 0.09051553 -0.5897089 -0.08254062
000080 fb 92 51 3d 1a 88 3d bf ed 67 4f bf 22 27 9c bf
       0.051165562 -0.740358 -0.81017953 -1.2199442
000090 1a 8b 10 3e 47 d2 12 3e 54 10 84 bd 45 95 1c bf
       0.14115563 0.14338027 -0.06448427 -0.6116527
0000a0 dc 13 46 bf dc bc 46 bd 90 a1 7e 3e 2d cf eb bd
       -0.77374053 -0.048519954 0.24866319 -0.11514125
0000b0 87 5b 2a bf 60 5c 87 be 9e 12 3a bf 14 93 ef be
       -0.6654591 -0.26437664 -0.7268466 -0.467919
0000c0 70 8a c3 be 11 c7 fb be cc 2d 2a bf 64 d7 50 be
       -0.38191557 -0.49175313 -0.6647613 -0.20394665
0000d0 52 69 83 be 29 2a 28 be 68 fa 3a bf 4d 3d ad be
       -0.2566629 -0.16422333 -0.7303834 -0.3383583
0000e0 ce 15 93 bf 18 69 14 be 81 4e a6 be 88 3f e6 be
       -1.1491029 -0.14493215 -0.3248177 -0.44970345
0000f0 5e 2b 2b bf 10 5f ad bc b8 a2 48 bf 3c de a5 be
       -0.6686305 -0.021163493 -0.7837329 -0.32396114
000100 c1 a2 88 3e 21 41 81 bf af 06 95 bf a9 9e 81 bf
       0.2668667 -1.0098001 -1.1642665 -1.0126544
000110 a4 f0 e1 be ef 48 7c 3e 0e 60 07 be 7b 1f 62 bf
       -0.44128907 0.24637197 -0.13220236 -0.88329285
000120 ae 3d 3d bf af ca 28 be b1 08 5a 3e 6e bc 2f be
       -0.7392224 -0.16483568 0.21292378 -0.17161724
000130 ed e2 75 bf 3e b9 23 be 05 79 42 bf 59 b9 3e bf
       -0.96049386 -0.15988633 -0.7596591 -0.7450157
000140 2c e9 12 bf 05 68 0c be c9 82 80 bf 36 4f 4c be
       -0.5738704 -0.13711555 -1.0039912 -0.19952092
000150 df 82 ac be c5 59 44 bd 84 31 50 bf b9 99 93 bd
       -0.33693597 -0.047937173 -0.81325555 -0.07207055
000160 f1 35 87 bf d7 46 8d be 6f 0a 16 bf d1 36 a0 be
       -1.0563337 -0.2759311 -0.5860967 -0.31291822
000170 25 3d 40 be aa 72 08 bd 31 29 65 bf 34 0b bf be
       -0.18773325 -0.033312477 -0.8951598 -0.37313235
000180 64 d0 d5 be 7f 9f 47 3e 91 4e 70 bc f0 3c c6 bd
       -0.41760552 0.19494437 -0.014667169 -0.09679592
000190 86 55 90 3d 68 76 1f 3f be b7 27 3e 54 50 4f 3e
       0.07047562 0.6229005 0.16378686 0.20245486
0001a0 8a db fe bd 84 11 4a bd c8 8a 19 bf 77 53 78 3d
       -0.124442175 -0.04933311 -0.5997739 0.060626473
0001b0 28 1b bc 3d ca 42 4c 3e 59 50 58 3e bb 5c 30 3e
       0.09184867 0.19947353 0.211244 0.17222874
0001c0 5d 15 d5 bd ee 78 8b 3e 78 27 e5 bd 7c 1f ce 3d
       -0.10404465 0.272407 -0.11189169 0.10064599
0001d0 ef 2b 20 bd 6e 29 9b be f7 df 5a 3e 12 7c b2 bd
       -0.0391044 -0.30305046 0.21374498 -0.08715071
0001e0 05 e5 ce bc cc b3 54 be fd 6c 86 bd 86 3a 2e 3d
       -0.02525569 -0.20771712 -0.065637566 0.04253628
0001f0 6b d8 14 3d 34 4e 03 be 8b 96 bf 3d 7a 2a cc 3d
       0.036339205 -0.12822801 0.09354886 0.09969039
000200 1b bc 71 3e 61 11 1c bf 8e a0 2a bf bf a3 5b bf
       0.23606913 -0.6096402 -0.66651237 -0.8579673
000210 c5 f1 66 3e a4 1b bf 3e 05 10 d8 3d 8f 1d 1c bf
       0.22553165 0.37325776 0.105499305 -0.609826
000220 e6 5e 0e bf fe 6f 9a 3e f5 f7 86 3e 3b 26 bd be
       -0.55613554 0.30163568 0.2636105 -0.3694323
000230 c2 4e be be b3 ac 20 be 33 6a cf be c5 e7 ab be
       -0.37169462 -0.1569088 -0.4051071 -0.33575264
000240 d0 86 8e be 60 08 02 bf 6b b6 fa be 12 a5 05 be
       -0.2783723 -0.5079403 -0.489673 -0.1305125
000250 2d 60 7a 3c 3a 3a 16 bd 40 22 f6 be 38 48 2c bd
       0.015281719 -0.036676623 -0.48073006 -0.04206106
000260 e1 3c 6a bf 82 5a 93 bd f5 d7 41 be d4 1a cf be
       -0.91499144 -0.07194997 -0.18930037 -0.40450156
000270 9b 7b 92 be 41 c4 f2 3c 15 fd 15 bf 2f 92 e2 bd
       -0.28609928 0.029634597 -0.585893 -0.110630386
000280 90 c7 8a bd bf b1 1d bf d3 82 37 bf 9a ee a8 bf
       -0.06776345 -0.61599344 -0.71683997 -1.3197815
000290 d0 80 56 3d 91 69 7b bb 4f 8b e8 bd 50 68 3c bf
       0.05236894 -0.0038362483 -0.11354696 -0.7359667
0002a0 be eb 1c bf ce 35 08 3d a6 99 ad ba 65 c2 88 be
       -0.61297214 0.033254437 -0.0013244643 -0.2671081
0002b0 c7 79 d9 be 10 3f 7e be 81 e0 1c bf d7 0c 15 bf
       -0.4247572 -0.24828744 -0.61280066 -0.5822272
0002c0 03 1f 01 bf b8 e8 1c bf f2 e1 26 bf 8e 73 55 bd
       -0.50437945 -0.612926 -0.65188515 -0.052112155
0002d0 19 a7 ad be 27 75 89 be d8 f5 88 bf f0 db 26 bd
       -0.33916548 -0.26847193 -1.0700026 -0.040737092
0002e0 4f ef 84 bf fe ea a6 bc 08 aa c8 be 70 73 13 bf
       -1.0385531 -0.020375725 -0.39192224 -0.5759802
0002f0 ab 5f 1a bf 24 04 09 39 a0 d6 63 bf 3e 00 ec be
       -0.6030223 0.0001306688 -0.88999367 -0.46093935
000300 28 62 3e 3e 53 05 9e bf 5b 87 9e bf df 65 99 bf
       0.18592131 -1.2345375 -1.2385057 -1.1984214
000310 7d a5 98 be 3d e0 77 3e 48 3a 7b bd 75 2a 35 bf
       -0.29813758 0.24206634 -0.06133488 -0.7076791
000320 24 a8 2d bf af 37 62 be 01 08 5d 3e 95 43 48 be
       -0.6783469 -0.22091554 0.21585084 -0.1955703
000330 6b d5 35 bf 79 29 c2 be 5f 70 3a bf c8 07 26 bf
       -0.71028775 -0.37922266 -0.72827715 -0.64855623
000340 7d 49 b6 be b7 c5 a4 be 97 6a 53 bf 45 35 d5 be
       -0.35602942 -0.32182094 -0.8258452 -0.41642204
000350 34 ef 8c be 33 c8 53 be b7 ff 83 bf 93 b5 3c be
       -0.27526248 -0.20681839 -1.0312413 -0.1842864
000360 b9 44 89 bf f5 5e b3 bd 56 5e 1e bf be 00 d2 be
       -1.0724097 -0.08758346 -0.61862695 -0.4101619
000370 ae ff 57 be e8 58 8f be 01 d3 2d bf b8 de 04 be
       -0.21093628 -0.27997518 -0.6790009 -0.12975585
000380 66 f5 80 be fe c3 e0 3d 07 af fc bc 01 20 3a 3e
       -0.25187224 0.109748825 -0.030845178 0.18176271
000390 6c e4 35 3c a7 7e 19 3f bf 07 8e 3e a3 f0 38 bd
       0.011101823 0.5995888 0.27740285 -0.045151364
0003a0 12 fc c9 bd ca df c3 bd 9c a6 1b bf 71 3b 6f 3c
       -0.09862532 -0.09564169 -0.608011 0.014601574
0003b0 d0 ed a1 bd 28 15 96 3d 00 00 a2 bd 11 d2 14 3e
       -0.07906687 0.07328254 -0.07910156 0.14533259
0003c0 31 3e 24 3e 55 c9 93 3d 2f d8 ae bd 2a b9 98 3d
       0.16039349 0.072161354 -0.085373275 0.07457192
0003d0 3f 44 0e 3e 9b 4c 8b be b1 fb 36 3e 3f c3 9d bd
       0.13893221 -0.27206883 0.1786945 -0.07703256
0003e0 e5 bf 00 be 24 d4 95 be f0 cc 0d 3d a7 e1 f9 bd
       -0.12573202 -0.29263413 0.03461927 -0.12201243
0003f0 69 b3 0e bd 6d c6 01 3e e9 9d f6 bb 89 0a 27 3e
       -0.034839068 0.1267335 -0.0075261486 0.16312613

270 f4 [2, 1, 32]
000000 00 00 00 00 00 00 00 00 00 00 00 00 00 00 00 00
       0.0 0.0 0.0 0.0
000010 00 00 00 00 00 00 00 00 00 00 00 00 00 00 00 00
       0.0 0.0 0.0 0.0
000020 00 00 00 00 00 00 00 00 00 00 00 00 00 00 00 00
       0.0 0.0 0.0 0.0
000030 00 00 00 00 00 00 00 00 00 00 00 00 00 00 00 00
       0.0 0.0 0.0 0.0
000040 00 00 00 00 00 00 00 00 00 00 00 00 00 00 00 00
       0.0 0.0 0.0 0.0
000050 00 00 00 00 00 00 00 00 00 00 00 00 00 00 00 00
       0.0 0.0 0.0 0.0
000060 00 00 00 00 00 00 00 00 00 00 00 00 00 00 00 00
       0.0 0.0 0.0 0.0
000070 00 00 00 00 00 00 00 00 00 00 00 00 00 00 00 00
       0.0 0.0 0.0 0.0
000080 00 00 00 00 00 00 00 00 00 00 00 00 00 00 00 00
       0.0 0.0 0.0 0.0
000090 00 00 00 00 00 00 00 00 00 00 00 00 00 00 00 00
       0.0 0.0 0.0 0.0
0000a0 00 00 00 00 00 00 00 00 00 00 00 00 00 00 00 00
       0.0 0.0 0.0 0.0
0000b0 00 00 00 00 00 00 00 00 00 00 00 00 00 00 00 00
       0.0 0.0 0.0 0.0
0000c0 00 00 00 00 00 00 00 00 00 00 00 00 00 00 00 00
       0.0 0.0 0.0 0.0
0000d0 00 00 00 00 00 00 00 00 00 00 00 00 00 00 00 00
       0.0 0.0 0.0 0.0
0000e0 00 00 00 00 00 00 00 00 00 00 00 00 00 00 00 00
       0.0 0.0 0.0 0.0
0000f0 00 00 00 00 00 00 00 00 00 00 00 00 00 00 00 00
       0.0 0.0 0.0 0.0

271 f4 [2, 1, 32]
000000 00 00 00 00 00 00 00 00 00 00 00 00 00 00 00 00
       0.0 0.0 0.0 0.0
000010 00 00 00 00 00 00 00 00 00 00 00 00 00 00 00 00
       0.0 0.0 0.0 0.0
000020 00 00 00 00 00 00 00 00 00 00 00 00 00 00 00 00
       0.0 0.0 0.0 0.0
000030 00 00 00 00 00 00 00 00 00 00 00 00 00 00 00 00
       0.0 0.0 0.0 0.0
000040 00 00 00 00 00 00 00 00 00 00 00 00 00 00 00 00
       0.0 0.0 0.0 0.0
000050 00 00 00 00 00 00 00 00 00 00 00 00 00 00 00 00
       0.0 0.0 0.0 0.0
000060 00 00 00 00 00 00 00 00 00 00 00 00 00 00 00 00
       0.0 0.0 0.0 0.0
000070 00 00 00 00 00 00 00 00 00 00 00 00 00 00 00 00
       0.0 0.0 0.0 0.0
000080 00 00 00 00 00 00 00 00 00 00 00 00 00 00 00 00
       0.0 0.0 0.0 0.0
000090 00 00 00 00 00 00 00 00 00 00 00 00 00 00 00 00
       0.0 0.0 0.0 0.0
0000a0 00 00 00 00 00 00 00 00 00 00 00 00 00 00 00 00
       0.0 0.0 0.0 0.0
0000b0 00 00 00 00 00 00 00 00 00 00 00 00 00 00 00 00
       0.0 0.0 0.0 0.0
0000c0 00 00 00 00 00 00 00 00 00 00 00 00 00 00 00 00
       0.0 0.0 0.0 0.0
0000d0 00 00 00 00 00 00 00 00 00 00 00 00 00 00 00 00
       0.0 0.0 0.0 0.0
0000e0 00 00 00 00 00 00 00 00 00 00 00 00 00 00 00 00
       0.0 0.0 0.0 0.0
0000f0 00 00 00 00 00 00 00 00 00 00 00 00 00 00 00 00
       0.0 0.0 0.0 0.0

fc1.0.bias f4 [32]
000000 3a 76 c9 be c0 ed 8b be 20 8a ad be 59 cc e8 3d
       -0.39348012 -0.27329826 -0.33894444 0.11367101
000010 ea d5 9c bd 76 f3 bf be de b1 71 be 75 8c 04 3f
       -0.07657988 -0.37490433 -0.23603007 0.5177682
000020 22 e1 4d bd b9 a5 8e 3e 21 8e cd be c0 18 60 bd
       -0.05026353 0.2786081 -0.40147498 -0.054711103
000030 5a 3a ac be 08 b5 98 3e 4d 1f e7 3c 09 5c 21 3f
       -0.3363827 0.29825616 0.028213168 0.6303106
000040 d4 46 b8 be 60 14 08 be 1c 4d 17 3f b5 b8 a4 be
       -0.35991538 -0.13289022 0.59102035 -0.3217217
000050 89 a9 d6 3e 76 51 d8 be 2f f1 b8 be c1 61 06 be
       0.4192622 -0.4224965 -0.36121508 -0.13123228
000060 25 f2 38 3f 4a 8d 0e 3f fa ed ff be f0 3e fb bd
       0.72244483 0.5568434 -0.4998625 -0.12267864
000070 d7 f5 63 3f fa ac 3b be 2e 49 97 3c 18 fa c1 be
       0.89046997 -0.18327704 0.018467512 -0.3788612

fc1.0.weight f4 [32, 3]
000000 10 77 c7 3d fd 36 0f 40 98 e8 2c be 58 52 38 be
       0.09739506 2.2377312 -0.16885602 -0.18000162
000010 c2 56 fd 3f 55 59 bc 3d f0 bc f3 3d 7f 7a fd 3f
       1.9792101 0.09196726 0.11901271 1.9803008
000020 f3 ea 29 be 7a dd 87 be 64 b9 dc 3f 25 6f d2 be
       -0.16593532 -0.2653616 1.7244077 -0.41100422
000030 c5 26 8e 3e 73 fc d6 3f 7f ea 80 3e 12 54 74 be
       0.27763954 1.6795791 0.25178906 -0.23860195
000040 cc 2a db be f6 39 0a bf 6a 08 08 bf 03 7d eb be
       -0.4280609 -0.5399469 -0.5313784 -0.45993814
000050 f6 63 94 be e1 5b 2d 3c d5 32 0f c0 b8 c5 50 3f
       -0.28982514 0.010580988 -2.2374775 0.81551695
000060 35 0a 4d 3e 54 7e bf 3f a6 e6 fd 3e 3f ce 99 be
       0.20023425 1.4960427 0.49590033 -0.30040166
000070 8a d8 b5 3f 28 0c 0a bf d1 25 a3 be e0 f9 10 be
       1.4206707 -0.539248 -0.3186479 -0.1415782
000080 dc f4 89 be 03 3b 9f be 41 54 d2 be 20 73 12 bf
       -0.26944625 -0.3109971 -0.41079906 -0.57206917
000090 24 48 00 bf 60 13 bc 3c ba 9c 0d 3f 73 bf 25 3e
       -0.5011008 0.022958457 0.5531727 0.16186313
0000a0 1e b7 a2 3f 4c f1 f4 3e cc 1d 90 3e fd 2e bd 3f
       1.2712133 0.47840345 0.28147733 1.4779965
0000b0 15 2c df 3d 72 40 34 bd b7 58 b0 bf 8f d2 31 be
       0.1089708 -0.044006772 -1.3777074 -0.17365478
0000c0 5b 25 6d be ff 5d d1 3f 02 fb 16 3f ea 7d ee 3e
       -0.23158781 1.635681 0.5897676 0.4658044
0000d0 b0 11 00 40 ff 4a a6 be 8f 0d 36 3f 0b a8 90 bf
       2.0010796 -0.32479092 0.7111444 -1.1301283
0000e0 cd 47 d6 be 18 de 99 3d 5b e4 0a 40 0a 67 90 be
       -0.41851655 0.07513064 2.1701877 -0.28203613
0000f0 70 eb 1f 3f cc fb 8f bf cb 72 3e 3f 87 87 75 3e
       0.62468624 -1.1248717 0.7439391 0.23977481
000100 7a ac f9 3f 2d f7 10 3e 10 23 27 3f 2c 18 01 40
       1.9505761 0.1415679 0.65287876 2.0171003
000110 1c 58 20 be 27 20 b7 3e 87 db f3 3f de e8 11 3e
       -0.15658611 0.35766718 1.905137 0.14248988
000120 93 58 1c 3f 0f 76 a6 bf 99 6d 7e bc 2e 99 6a 3f
       0.61072654 -1.3004779 -0.01552906 0.91639984
000130 8e dc 92 bf 82 3e ab 3e 4c 33 0c 3f a0 88 06 bf
       -1.1473558 0.33446127 0.5476577 -0.52552223
000140 60 ea 3a 3d a6 b2 3d be c3 20 b6 3f fd 44 bf 3e
       0.045633674 -0.1852518 1.4228748 0.3735732
000150 fd 7f 0f 3f 18 66 ba bf f7 9e a9 3e 99 07 48 3f
       0.5605467 -1.4562407 0.33129093 0.78136593
000160 b4 ee f3 3e 28 f1 2b bf fd 60 a9 3e ab 1e d8 3f
       0.47643054 -0.6716485 0.3308181 1.6884359
000170 38 01 be 3e 86 65 e0 be e0 20 af bc 7d 7f 0e bf
       0.37110305 -0.43827456 -0.02137798 -0.5566328
