models/script_model-70000.pt (torch, 669993 bytes, 22 tensors)

weight_hh_l0_reverse f4 [128, 32]
0	0x3f1b9563	0.6077482
1	0x3e73c9bd	0.23807426
2	0xbe25a4f1	-0.16176201
3	0x3daa6965	0.08320884
4	0xbdbb5780	-0.09147549
5	0xbec905b7	-0.39262173
6	0xbd741452	-0.05958969
7	0xbe289e17	-0.16466556
8	0xbe07d8b2	-0.13266256
9	0xbe24d1ba	-0.1609563
10	0x3e8dd28b	0.27699694
11	0x3e959ad3	0.29219684
12	0x3e02b836	0.12765583
13	0xbea92580	-0.33036423
14	0x3e0a1154	0.13483173
15	0x3dbee322	0.09320666
16	0xbe694381	-0.22779657
17	0xbd8b1e11	-0.06792844
18	0x3f173f92	0.59081376
19	0xbdf6c924	-0.12050083
20	0xbe6d6029	-0.23181213
21	0x3db3b704	0.08775142
22	0xbe9b84a1	-0.30374625
23	0xbec3831c	-0.38185966
24	0x3ef21f06	0.47289294
25	0xbd5313bc	-0.051532492
26	0x3cb2ff1b	0.02185016
27	0x3edbe135	0.42945257
28	0x3e35fb1e	0.17771575
29	0xbe103772	-0.1408365
30	0xbe5483ca	-0.20753399
31	0xbe81526a	-0.2525819
32	0x3ca9d793	0.020732677
33	0xbe5ae7a7	-0.21377431
34	0xbecc6b0a	-0.39925414
35	0xbe894dec	-0.26817262
36	0x3cd2653e	0.025683042
37	0x3e8f3e3e	0.27977175
38	0x3e9b0726	0.3027889
39	0x3e2dda08	0.16977704
40	0xbe96deb3	-0.2946678
41	0xbf13eb77	-0.57781166
42	0x3f4f9c9c	0.8109834
43	0xbee35974	-0.44404185
44	0x3ddde303	0.10834315
45	0xbe8825ab	-0.26591238
46	0x3e8064ba	0.25076848
47	0x3ba71c7e	0.005099832
48	0x3dfdd9a4	0.12395027
49	0x3dbabfaf	0.09118592
50	0xbc92bcc7	-0.017912282
51	0xbe1eb184	-0.15497404
52	0x3e510200	0.20410919
53	0xbcb84d7d	-0.022497887
54	0xbe769f58	-0.24084222
55	0x3ef154cd	0.4713501
56	0x3edf058f	0.43558928
57	0xbd5af170	-0.05345291
58	0x3efc0516	0.4922263
59	0xbc038090	-0.008026257
60	0xbe15f3fe	-0.14643857
61	0x3e6a1cee	0.22862598
62	0x3bf52b53	0.0074819713
63	0x3ecf8f8f	0.40539214
64	0x3ecb8995	0.39753404
65	0xbe6923e6	-0.227676
66	0xbdfa3bdf	-0.12218451
67	0x3d51439a	0.05108986
68	0x3e790b88	0.24320805
69	0x3ea30637	0.3184068
70	0xbc713e9d	-0.014724401
71	0x3cb4be35	0.022063354
72	0xbec661a4	-0.3874637
73	0x3e342b1a	0.17594567
74	0xbee9b3d4	-0.4564501
75	0x3e38e262	0.18055108
76	0x3d157e55	0.036497433
77	0xbdb6e5bd	-0.08930538
78	0xbece1b55	-0.40255228
79	0xbc823c01	-0.015897753
80	0xbc75a633	-0.014993238
81	0x3e7e71e5	0.24848135
82	0x3ef4b3a0	0.47793293
83	0x3dea4318	0.11438578
84	0xbeb5f052	-0.35534912
85	0xbde09ec7	-0.109677844
86	0xbec93dde	-0.39305013
87	0x3def1f2a	0.11675866
88	0x3e7e42f4	0.24830228
89	0x3ef00b1c	0.46883476
90	0x3eca4956	0.39509076
91	0xbe88be42	-0.26707655
92	0xbdd8b4e7	-0.105813794
93	0xbe128251	-0.14307524
94	0xbd7c7d60	-0.061643004
95	0xbe6457af	-0.22299074
96	0xbdaae072	-0.08343591
97	0xbcedbed5	-0.02902166
98	0xbe6023dd	-0.21888681
99	0x3e8e5808	0.27801538
100	0xbe52430c	-0.20533389
101	0xbc4f466a	-0.012651065
102	0x3eaa392a	0.33246738
103	0x3d8cb6df	0.068708174
104	0xbe2773cd	-0.16352768
105	0x3e94871a	0.29009324
106	0xbe021c7e	-0.12706181
107	0xbe734ded	-0.23760195
108	0xbe9b3a68	-0.30317998
109	0x3e5d560b	0.21614854
110	0x3d6c9dcb	0.05776767
111	0xbed8fae8	-0.42378926
112	0xbdc65f5e	-0.096861586
113	0xbec232e3	-0.37929448
114	0x3e99cb35	0.30037847
115	0xbe6cc3fb	-0.23121636
116	0x3d9dc4ac	0.07703528
117	0xbe19ba3e	-0.15012452
118	0x3ea82637	0.32841656
119	0x3e198be0	0.14994764
120	0x3dba4965	0.0909603
121	0x3de31d81	0.11089612
122	0x3eed8629	0.4639142
123	0xbd9f8a96	-0.07790105
124	0x3c82e503	0.015978342
125	0x3e0e9a46	0.13926038
126	0xbdab2fb4	-0.08358708
127	0x3ec52c46	0.3851034
128	0x3d7a72e2	0.061144717
129	0x3d30da5b	0.04317699
130	0xbd804f4e	-0.06265126
131	0xbe0901cf	-0.13379596
132	0x3eb30915	0.34967867
133	0x3ce5d791	0.028056892
134	0x3f1b2443	0.60602206
135	0xbc1cb1b1	-0.009563849
136	0xbee0f5ee	-0.4393763
137	0x3e932730	0.28740835
138	0x3e99d86e	0.30047935
139	0xbde6d911	-0.11271871
140	0x3eb36ed8	0.35045505
141	0xbdd2b880	-0.10289097
142	0x3d97e2fd	0.074163415
143	0x3eb031af	0.34412906
144	0x3f31f092	0.69507706
145	0x3ef28f65	0.47375026
146	0x3f07eea0	0.5309849
147	0x3d60782e	0.054802112
148	0x3f5ddf14	0.86668515
149	0xbcdd576e	-0.027019229
150	0x3e230dac	0.15923184
151	0x3dd84aac	0.105611175
152	0x3edffc7c	0.43747318
153	0xbe40b54e	-0.18819162
154	0xbd81d551	-0.06339515
155	0x3e9b3c3d	0.30319396
156	0x3dc00d20	0.093775034
157	0x3db56207	0.08856588
158	0xbb1c0c4c	-0.002381104
159	0xbe00ffd6	-0.12597594
160	0x3ea1552d	0.31510296
161	0xbd95ae11	-0.07308591
162	0xbe580675	-0.21096213
163	0x3e53f134	0.2069748
164	0xbd629284	-0.05531551
165	0x3eba84bc	0.36429393
166	0xbedb454d	-0.4282631
167	0xbe332d7e	-0.17497823
168	0xbda5ae05	-0.08089832
169	0x3de42086	0.11139016
170	0x3e581ff7	0.21105944
171	0xbe99dcdf	-0.30051324
172	0x3e34899e	0.17630622
173	0x3cac0912	0.021000419
174	0x3d9b1295	0.075719036
175	0x3e012a0f	0.126137
176	0x3d8d3297	0.06894415
177	0x3db97df6	0.09057228
178	0x3e6d0b6e	0.23148891
179	0x3ddac134	0.10681382
180	0xbdb2ba90	-0.0872699
181	0xbdafad7d	-0.08578012
182	0x3d1219e1	0.03566921
183	0x3e80f32c	0.25185525
184	0x3e9b18e6	0.30292434
185	0x3da03d41	0.07824183
186	0x3e4bf536	0.1991776
187	0x3e02e72a	0.12783495
188	0xbe04a38e	-0.12953016
189	0x3dc9ab15	0.098470844
190	0x3eb43410	0.3519597
191	0xbe603869	-0.21896519
192	0x3e672922	0.22574285
193	0xbe7c8bf1	-0.24662758
194	0xbedba022	-0.4289561
195	0xbc9fce67	-0.0195076
196	0x3f309e2e	0.68991363
197	0xbe49e93d	-0.1971788
198	0xbf2d43b8	-0.67681456
199	0xbe56d34a	-0.20979038
200	0xbe82bbe7	-0.25533983
201	0x3dc37d58	0.09545392
202	0x3c787690	0.015164986
203	0x3eb772b0	0.35829687
204	0xbeb89650	-0.3605218
205	0xbea4b4b8	-0.32169127
206	0x3d826712	0.06367315
207	0xbecf088e	-0.40436214
208	0x3de7dc20	0.113212824
209	0xbe62f5c2	-0.22164062
210	0x3dfc9298	0.12332648
211	0x3ea93f1f	0.3305597
212	0xbbfd4cde	-0.0077301105
213	0x3e2be297	0.16785656
214	0x3e554aec	0.20829362
215	0x3e5bb208	0.21454632
216	0x3dd432fa	0.103612855
217	0x3cd3acd5	0.025839249
218	0xbddf34e0	-0.10898757
219	0xbedf5795	-0.43621507
220	0x3e4c0849	0.19925036
221	0xbe057b18	-0.13035238
222	0x3e98c6b8	0.2983911
223	0xbdf3814c	-0.11889896
224	0xbcd0412e	-0.025421705
225	0xbe966c1e	-0.29379362
226	0x3eedc4c0	0.4643917
227	0xbdc329a1	-0.095294245
228	0xbe095c26	-0.13414058
229	0xbf57feac	-0.84372973
230	0xbe32ec0d	-0.17472859
231	0x3d7db059	0.061935756
232	0x3e916d2d	0.28403607
233	0x3ea42df5	0.32066312
234	0xbe03db01	-0.12876512
235	0xbe3d4ad9	-0.18485583
236	0xbe014d50	-0.12627149
237	0xbb69d3c8	-0.003567921
238	0x3dbb31d5	0.09140364
239	0xbdef8787	-0.11695772
240	0x3d7ac608	0.061224014
241	0xbda842b0	-0.08215845
242	0xbf07d48c	-0.53058696
243	0x3d8430ee	0.06454645
244	0x3cb43bd7	0.02200119
245	0x3eb3ac93	0.350926
246	0x3e2001f4	0.15625745
247	0x3d8d1e3b	0.06890532
248	0x3d6713fd	0.056415547
249	0xbdef7ab7	-0.11693328
250	0xbf09009f	-0.5351657
251	0x3e0293dd	0.12751718
252	0x3ec9fae5	0.3944923
253	0x3ef8b1ba	0.48573095
254	0xbe7def83	-0.24798398
255	0xbf455318	-0.77079916

weight_ih_l1_reverse f4 [128, 64]
0	0xbe282330	-0.16419673
1	0x3f873f4b	1.056619
2	0x3f2c5c7f	0.6732864
3	0xbe8a97a3	-0.27068815
4	0xbe86c54b	-0.26322398
5	0xbf9a40a3	-1.2050976
6	0xbe71f380	-0.23628044
7	0x3f06590f	0.5247964
8	0x3eccef21	0.4002619
9	0xbb43766c	-0.0029825224
10	0xbea5ab1a	-0.32357103
11	0x3da36b46	0.07979445
12	0x3f85a487	1.0440835
13	0xbed29dab	-0.41135916
14	0x3f4d7f8a	0.80272734
15	0xbec6284c	-0.3870262
16	0x3e2796d8	0.16366136
17	0xbf5371d1	-0.82595545
18	0xbeb74e9d	-0.35802165
19	0x3ed4e91d	0.415841
20	0x3f6ea3a7	0.93218464
21	0xbe565cff	-0.20933913
22	0x3e8b98b9	0.27264956
23	0x3e9e3d0e	0.30905956
24	0x3f936fe8	1.1518526
25	0x3ec44f57	0.38341781
26	0xbf5199f9	-0.8187557
27	0x3d3e6311	0.046481196
28	0xbeb5e81e	-0.35528654
29	0xbeab2b33	-0.33431396
30	0xbea83599	-0.32853392
31	0xbe0009f4	-0.12503797
32	0x3f07fed8	0.53123236
33	0xbf2a47f3	-0.66516036
34	0xbec1d443	-0.37857255
35	0x3e433a90	0.19065309
36	0xbd965539	-0.07340474
37	0xbeb4cd64	-0.3531295
38	0xbeaf0135	-0.34180608
39	0xbf56a561	-0.838461
40	0xbdcc5575	-0.09977237
41	0x3e48faed	0.1962697
42	0xbeea5fcf	-0.4577622
43	0xbf22d79c	-0.63610244
44	0xbebc31d1	-0.36756757
45	0xbe75f9f9	-0.24021138
46	0x3f4392f5	0.76396114
47	0xbf2eb717	-0.6824812
48	0xbd449fa8	-0.048003823
49	0xbf57b458	-0.8425956
50	0xbea953d9	-0.33071783
51	0x3e95860d	0.29203835
52	0x3cf73212	0.030175243
53	0xbea8de0c	-0.32981908
54	0x3e6a7b3b	0.22898571
55	0x3ca9d41d	0.020731026
56	0xbe9e7828	-0.30951047
57	0xbf932d29	-1.1498157
58	0x3e269c26	0.16270503
59	0xbeaa78b1	-0.33295205
60	0x3c3e53c7	0.011616654
61	0x3f6f439e	0.9346255
62	0x3e87cbf1	0.26522782
63	0xbf03bd2e	-0.5146054
64	0xbc54912f	-0.012974068
65	0x3ec7e75b	0.39043698
66	0x3e18b4da	0.1491274
67	0x3d6f32b4	0.058397964
68	0x3e1168f0	0.14200187
69	0xbeb99b7a	-0.36251432
70	0x3ddf58ab	0.10905584
71	0x3dc462fb	0.095891915
72	0x3de468d3	0.11152806
73	0xbccc5bb5	-0.024946073
74	0xbe1ca2d0	-0.15296483
75	0x3e019a61	0.12656547
76	0x3d8837ce	0.06651269
77	0xbebdddec	-0.37083375
78	0x3dc6ff58	0.09716672
79	0x3c261ef5	0.010139217
80	0xbe854d25	-0.2603542
81	0xbe5cdd0f	-0.21568702
82	0x3de6a03f	0.11261033
83	0xbdc40226	-0.09570722
84	0x3e280c7f	0.16411017
85	0xbda5c889	-0.0809489
86	0xbe575de6	-0.21031913
87	0x3dfdd7f8	0.123947084
88	0x3eb5449e	0.35403913
89	0xbc53d923	-0.012930187
90	0xbe15a34f	-0.14613079
91	0x3ca14d91	0.019690307
92	0xbe76b2bd	-0.2409162
93	0xbe59c3d8	-0.21266115
94	0x3cc12dbf	0.023581384
95	0xbcdf351e	-0.027247008
96	0xbda3fa1e	-0.080066904
97	0x3d1cd74a	0.038291253
98	0x3e96d141	0.29456523
99	0x3e6776de	0.22603938
100	0xbf08e55f	-0.5347499
101	0xbeb74853	-0.35797366
102	0xbde911df	-0.11380362
103	0xbe2f644f	-0.17128108
104	0x3ea280c8	0.31738877
105	0x3ec25f61	0.37963393
106	0xbe29e599	-0.16591491
107	0x3c08b08a	0.008342871
108	0xbb93c015	-0.004508982
109	0x3e3b75f7	0.18306719
110	0xbdcc8f74	-0.09988299
111	0xbe44664b	-0.19179647
112	0xbebbb6c2	-0.3666287
113	0xbe990e15	-0.29893556
114	0xbd6f7b4b	-0.05846719
115	0xbe230ccc	-0.1592285
116	0xbf16f4e8	-0.5896745
117	0x3d88b391	0.066748746
118	0x3e37b0b8	0.17938507
119	0x3f20fc4a	0.6288496
120	0xbeaa4c4d	-0.33261338
121	0x3da3825b	0.07983848
122	0xbe2aa4d4	-0.1666444
123	0x3e42b605	0.19014747
124	0x3f0a4ee3	0.5402662
125	0xbd4ca761	-0.049964312
126	0x3d5ce1a0	0.05392611
127	0x3d424afd	0.047434796
128	0xbe8cd324	-0.27504838
129	0x3e6e3536	0.23262486
130	0x3f22c899	0.6358734
131	0xbe156de9	-0.14592709
132	0xbf278858	-0.6544242
133	0xbf77b3d6	-0.9675878
134	0x3e86082d	0.26178113
135	0x3e4ac792	0.19802693
136	0x3f0947f0	0.5362539
137	0x3e0935b2	0.1339939
138	0xbf2a43e6	-0.66509855
139	0xbf255cf0	-0.64594936
140	0x3e70f8b8	0.23532379
141	0xbddeeeee	-0.10885416
142	0x3f843293	1.0327934
143	0xbe7bb1f9	-0.2457961
144	0x3e47737c	0.19477648
145	0xbeb0f923	-0.34565076
146	0xbdc17e09	-0.094478674
147	0x3f04f666	0.51938474
148	0x3e41fca6	0.18944034
149	0xbf275ae8	-0.65373087
150	0x3eb3237f	0.3498802
151	0x3ed086ea	0.4072793
152	0x3f37942b	0.7171046
153	0x3f138c66	0.57636106
154	0xbecf8ecb	-0.4053863
155	0x3ebdf07d	0.3709754
156	0xbf116c8c	-0.56806254
157	0xbf110f07	-0.56663555
158	0xbda49c0e	-0.080375776
159	0xbe07f0bf	-0.13275431
160	0x3ef682b7	0.48146603
161	0xbed7c974	-0.42145884
162	0xbe93bbee	-0.28854316
163	0x3e8a77b1	0.27044442
164	0xbd5bc786	-0.053657077
165	0xbda90e4b	-0.08254679
166	0xbee011a2	-0.43763453
167	0xbf2cb0f5	-0.67457515
168	0x3e8208d9	0.25397375
169	0x3ed31250	0.4122491
170	0xbe8136b4	-0.25237048
171	0xbf3a6602	-0.728119
172	0x3d11ebb0	0.03562516
173	0xbecb7897	-0.3974044
174	0x3edb89f0	0.42878675
175	0xbedb66f9	-0.42852
176	0x3d905060	0.0704658
177	0xbf674ba3	-0.9034979
178	0xbf23e702	-0.64024365
179	0xbd940648	-0.072277606
180	0x3e99b090	0.3001752
181	0xbeedf9bd	-0.46479598
182	0x3dc8addf	0.09798788
183	0x3d4225b4	0.047399238
184	0xbd6e8866	-0.05823555
185	0xbf6347bc	-0.8878133
186	0x3ec59598	0.38590693
187	0xbeab01f1	-0.3339992
188	0x3c84994a	0.016186375
189	0x3ec71742	0.38884932
190	0x3e7681a0	0.24072886
191	0xbe9c170c	-0.30486333
192	0x3e60fe36	0.21971974
193	0xbd5d6924	-0.054055348
194	0x3d4086f8	0.047003716
195	0xbc8c60a3	-0.017135924
196	0x3de1f19f	0.11032414
197	0x3da9e531	0.08295668
198	0xbe5029ef	-0.20328496
199	0x3e3dd702	0.1853905
200	0x3e060956	0.13089499
201	0xbdf4abd6	-0.119468376
202	0x3d877d36	0.06615679
203	0xbe60c9b6	-0.21951947
204	0x3dcd743f	0.10031938
205	0x3cbe2c1b	0.02321439
206	0x3e1451c5	0.14484318
207	0xbd77434f	-0.060366925
208	0x3e0dbcc8	0.13841546
209	0xbd0cb62e	-0.034353428
210	0xbe4b5ac5	-0.19858845
211	0xbe2e0d50	-0.16997266
212	0x3e28cf6f	0.1648538
213	0x3e185ee0	0.14879942
214	0xbe5544b6	-0.20826992
215	0x3e8e7f7e	0.27831644
216	0x3e09057a	0.13380995
217	0x3e398814	0.18118316
218	0xbe84f370	-0.25966978
219	0x3e905ea9	0.2819722
220	0x394a2c15	0.00019280643
221	0xbd2d264c	-0.04227285
222	0xbcf9b358	-0.030481026
223	0x3db86195	0.09002987
224	0xbe03f494	-0.12886268
225	0x3e6a9b3d	0.22910781
226	0x3e4c9a48	0.19980729
227	0x3e22966c	0.15877694
228	0x3e1f761c	0.15572399
229	0x3ddf21a3	0.108950876
230	0x3e49286b	0.19644324
231	0x3ba91dc7	0.0051610204
232	0xbc86c7ee	-0.016452756
233	0x3e168f1d	0.14703031
234	0x3d0f43e1	0.034976844
235	0x3dd0a21a	0.101871684
236	0x3e8e4f40	0.27794838
237	0xbc32f680	-0.010923028
238	0x3d6eaa67	0.058267977
239	0x3dd8df6b	0.105894886
240	0xbe987c40	-0.29782295
241	0xbdcf099c	-0.10109255
242	0x3dc1184e	0.09428464
243	0xbe01cf1a	-0.12676659
244	0xbe6c6552	-0.23085526
245	0x3dcba29d	0.099431254
246	0xbd6d236d	-0.057895113
247	0x3cfa8a6e	0.030583587
248	0xbe2260a5	-0.1585718
249	0x3e287f36	0.16454777
250	0x3dd28d28	0.1028083
251	0x3c2c1761	0.010503621
252	0xbde4459d	-0.1114609
253	0xbed1d725	-0.40984455
254	0xbe0ffd03	-0.1406136
255	0x3d4d4cba	0.050122

bias_hh_l0 f4 [128]
0	0x3e7f4b2a	0.24931017
1	0x3dce2949	0.10066468
2	0xbe31ca7c	-0.17362398
3	0x3f7dcb32	0.99138176
4	0x3d7c7993	0.06163938
5	0xbe93dcb7	-0.2887933
6	0x3fce59e3	1.6121181
7	0x3e98ece2	0.29868227
8	0x3eeed1f9	0.4664457
9	0xbc880da6	-0.01660807
10	0x3ea58032	0.32324368
11	0x3df47d55	0.11937968
12	0x3d2c5c90	0.042080462
13	0x3ee7d791	0.45281652
14	0x3cd16718	0.025561854
15	0x3c9ebe33	0.019377803
16	0x3f2dc193	0.67873496
17	0x3f372af5	0.7154992
18	0x3e4ca7cc	0.19985884
19	0x3ed4e26c	0.41578996
20	0x3e6ff8cd	0.23434754
21	0x3eeaa83e	0.45831484
22	0x3eaf9502	0.3429337
23	0x3f0491cd	0.51784974
24	0x3e3eb1aa	0.18622461
25	0x3e375256	0.17902502
26	0x3eb4fc30	0.35348654
27	0x3e39c60b	0.18141954
28	0x3e8ee5e7	0.27909777
29	0x3e4e2e73	0.20134906
30	0x3e97f934	0.29682314
31	0x3db53842	0.08848621
32	0xbf2b00d1	-0.6679812
33	0xbe66769c	-0.22506183
34	0xbe7a4430	-0.24440074
35	0xbef68c42	-0.48153883
36	0xbefca159	-0.49341848
37	0xbec92224	-0.3928386
38	0xbe1f98cc	-0.15585631
39	0xbf1788b3	-0.5919296
40	0xbed07d2e	-0.40720505
41	0xbe9e7e7c	-0.30955875
42	0xbf388688	-0.7208028
43	0xbeec60bc	-0.46167552
44	0xbe1ff354	-0.15620166
45	0xbe9c4a71	-0.30525544
46	0xbe969bf1	-0.2941585
47	0xbe980f3d	-0.29699126
48	0xbf59b4d1	-0.8504153
49	0xbeb31d1a	-0.3498314
50	0xbe9cae44	-0.30601704
51	0xbf1f5c12	-0.62249863
52	0xbe83835f	-0.25686166
53	0xbf0af56c	-0.54280734
54	0xbec9c839	-0.3941057
55	0xbf480b5f	-0.7814235
56	0xbeb41e75	-0.35179487
57	0xbe0ea8ae	-0.13931534
58	0xbf28a491	-0.6587611
59	0xbf138cdf	-0.5763683
60	0xbf0ee006	-0.5581058
61	0xbf4080b4	-0.75196385
62	0xbea5b028	-0.3236096
63	0xbeed8ed4	-0.46398032
64	0xbe054d94	-0.13017875
65	0x3cf26939	0.02959119
66	0x3d0d1720	0.03444588
67	0xbe10e08c	-0.14148158
68	0x3dc16b9b	0.09444352
69	0xbd39ff7b	-0.04540966
70	0x3d5862ba	0.052828528
71	0x3e0220b5	0.12707789
72	0x3e108734	0.14114076
73	0x3c38a66a	0.011270145
74	0xbd952fde	-0.072845206
75	0xbdc7d7d3	-0.09757962
76	0x3de2f664	0.110821515
77	0xbd2560fe	-0.040375702
78	0xbca00239	-0.01953231
79	0x3df37eb4	0.11889401
80	0xbd56560a	-0.052328147
81	0x3d0b9bd4	0.034084156
82	0x3de3ce4a	0.11123331
83	0xbcde6f52	-0.027152691
84	0x3e35c694	0.17751533
85	0xbd5307c9	-0.051521096
86	0x3bdc887f	0.006730139
87	0x3cd73b78	0.026273474
88	0xbd6acb9a	-0.057323076
89	0x3c221c52	0.009894447
90	0x3bc9122b	0.006136199
91	0xbe0b7b84	-0.13621336
92	0xb9e92e7a	-0.0004447585
93	0xbccc299b	-0.024922183
94	0x3c805af5	0.015668372
95	0xbdec760b	-0.115459524
96	0x3e65259c	0.22377628
97	0xbd3628ce	-0.044472508
98	0x3d298d6b	0.041394632
99	0x3f1e76ca	0.6190001
100	0x3da23762	0.0792072
101	0xbd5a7eb7	-0.0533435
102	0x3fa242d7	1.2676648
103	0x3ad93f36	0.0016574624
104	0xbc4ca07a	-0.0124894325
105	0xbe50c2fe	-0.20386884
106	0x3f245a88	0.6420064
107	0x3bf9e35b	0.00762598
108	0x3e179dd0	0.14806294
109	0x3e11aa39	0.14225091
110	0xbde8c4fb	-0.11365696
111	0xbeb26803	-0.3484498
112	0x3f0b5e64	0.54440904
113	0x3f1d4798	0.6143737
114	0x3d6e3a4b	0.05816106
115	0x3f07c473	0.5303413
116	0x3da216b3	0.07914486
117	0x3ec63bf1	0.38717607
118	0x3e408c08	0.18803418
119	0x3ec712b8	0.3888147
120	0x3df9f09b	0.12204095
121	0x3e5a0123	0.21289496
122	0x3eb4e3d4	0.3533007
123	0xbd8f6dcc	-0.07003364
124	0x3d425510	0.047444403
125	0x3e885e77	0.2663457
126	0x3eab51b1	0.33460763
127	0xbe0bedcd	-0.13664933

bias_ih_l0 f4 [128]
0	0x3f069821	0.5257588
1	0x3cb49921	0.022045674
2	0xbd37eb92	-0.04490239
3	0x3f7e3390	0.9929743
4	0x3ebc4631	0.36772302
5	0x3d103ac7	0.035212304
6	0x3fd27d06	1.6444404
7	0x3e2dd692	0.16976383
8	0x3e8b53f6	0.27212495
9	0x3de0b8f3	0.10972776
10	0x3f269aef	0.6508016
11	0x3e06e42d	0.1317298
12	0x3e07ef1a	0.13274804
13	0x3ebb0944	0.36530507
14	0x3e0cbac7	0.13743125
15	0x3ce793b4	0.028268673
16	0x3f13f08f	0.5778894
17	0x3f37d6cd	0.71812135
18	0x3e64c42e	0.22340462
19	0x3f248938	0.6427188
20	0x3de89e34	0.113583
21	0x3e8aa8e8	0.2708199
22	0x3eaee5aa	0.34159595
23	0x3f0167f8	0.5054927
24	0x3e3c0b4e	0.18363687
25	0x3e76b524	0.24092537
26	0x3e5d22ce	0.21595308
27	0x3e88362e	0.26603836
28	0x3e16ff5d	0.14745851
29	0x3e313059	0.173036
30	0x3ee858f2	0.4538036
31	0x3df78b76	0.12087147
32	0xbf153570	-0.58284664
33	0xbe7a1d9e	-0.2442536
34	0xbdf78a3c	-0.12086913
35	0xbf2cdc4c	-0.67523646
36	0xbef7def8	-0.484123
37	0xbed02e83	-0.40660486
38	0xbed77df7	-0.4208829
39	0xbee84c56	-0.4537074
40	0xbec044b6	-0.37552422
41	0xbecc84d9	-0.39945105
42	0xbf33f756	-0.7029928
43	0xbe6f80a4	-0.23388916
44	0xbedc59ac	-0.43037164
45	0xbe7042b4	-0.23462945
46	0xbe81b8f1	-0.25336412
47	0xbef72527	-0.48270532
48	0xbf426c6a	-0.75946677
49	0xbe845166	-0.25843352
50	0xbec9b277	-0.3939397
51	0xbf13cd49	-0.57735115
52	0xbe5b3a65	-0.21408994
53	0xbe9d8912	-0.3076864
54	0xbf0f4b02	-0.5597383
55	0xbf338b80	-0.70134735
56	0xbeb11d19	-0.34592512
57	0xbe988bb0	-0.29794073
58	0xbf1bfa36	-0.60928667
59	0xbf034922	-0.51283467
60	0xbee1a759	-0.4407299
61	0xbf285906	-0.6576084
62	0xbea2266c	-0.3166994
63	0xbf31727f	-0.6931533
64	0x3dabd6b2	0.08390559
65	0x3dbfcef6	0.093656465
66	0x3d569bdb	0.05239473
67	0x3dc858bd	0.097825505
68	0xbe5f072d	-0.21780081
69	0xbdf544b7	-0.11975997
70	0xbc8bcb54	-0.017064728
71	0xbd5b33e3	-0.05351628
72	0xbdc380a9	-0.09546024
73	0xbdf16b9b	-0.11788102
74	0xbcc516ca	-0.024058718
75	0xbd293057	-0.041305866
76	0x3d0624ab	0.032749813
77	0xbd98164f	-0.0742613
78	0x3e107283	0.14106183
79	0xbccc9ada	-0.024976183
80	0x3d2175cb	0.039418977
81	0xbe0dc9d7	-0.13846527
82	0xbdf613c4	-0.12015489
83	0x3e14511e	0.14484069
84	0x3c637aa8	0.013884224
85	0xbd99bbed	-0.07506547
86	0xbbb53c53	-0.005530873
87	0x3d98af77	0.07455342
88	0x3e54e041	0.20788671
89	0xbd3eec74	-0.046612218
90	0xbe0a29f4	-0.13492566
91	0x3e29f565	0.16597517
92	0xbd9c489d	-0.076310374
93	0xbd540272	-0.051760145
94	0xbda7c21a	-0.08191319
95	0x3dc16a2a	0.09444077
96	0x3ef6f0f2	0.48230702
97	0x3d81a701	0.063306816
98	0xbe17654d	-0.14784737
99	0x3f684295	0.90726596
100	0xbc4f7d17	-0.012664101
101	0xbd8f4874	-0.06996241
102	0x3fad400f	1.3535174
103	0x3e50a8fd	0.20376964
104	0x3d89f340	0.067358494
105	0xbe086108	-0.13318264
106	0x3f17308f	0.5905847
107	0x3dffe94b	0.12495669
108	0xbdd5dbae	-0.10442291
109	0x3e5ab7db	0.21359198
110	0xbe01a0d0	-0.12659001
111	0xbe9ac55d	-0.302287
112	0x3f33143f	0.6995277
113	0x3e971f95	0.29516283
114	0x3e491202	0.19635776
115	0x3f0a43e6	0.54009855
116	0xbd502da5	-0.05082478
117	0x3ec75ebc	0.38939464
118	0x3e37c5be	0.17946526
119	0x3df9e66c	0.122021526
120	0xbe0d66ea	-0.1380879
121	0x3c887c19	0.016660737
122	0x3e90454e	0.28177875
123	0xbd35e8b6	-0.044411384
124	0x3d11f41a	0.035633184
125	0x3e86735d	0.2625989
126	0x3ed40cb0	0.4141593
127	0xbdfc9a33	-0.12334099

weight_ih_l0_reverse f4 [128, 5]
0	0xbe1bf9d6	-0.15232024
1	0xbe568748	-0.20950043
2	0xbf8749ae	-1.056936
3	0xbe04c545	-0.12965877
4	0xbe5287fe	-0.2055969
5	0x3d578385	0.05261566
6	0xbed1a519	-0.40946272
7	0xbe8c2ee8	-0.27379537
8	0x3e97f9a3	0.29682645
9	0x3f3bb63b	0.73324937
10	0x3ef70887	0.48248693
11	0x3eca4fbd	0.3951396
12	0xbf384000	-0.71972656
13	0xbf20fe56	-0.62888086
14	0xbf81882e	-1.0119684
15	0x3e3d0e33	0.18462448
16	0xbd2a13f9	-0.041522954
17	0xbe313c77	-0.17308222
18	0xbe960ec4	-0.2930814
19	0x3f912f91	1.1342641
20	0x3ef9eb5d	0.4881238
21	0x3f2e3268	0.68045664
22	0xbf3be97f	-0.7340316
23	0xbfa29e74	-1.2704606
24	0x3f229cd8	0.63520575
25	0x3e3a5e93	0.1820014
26	0x3f518fea	0.8186022
27	0xbf9bb9f1	-1.216612
28	0xbf8ade90	-1.0849171
29	0x3f05249a	0.52008975
30	0x3f21abc8	0.6315274
31	0x3e93806a	0.2880891
32	0x3d20654c	0.039159104
33	0x3da47ce2	0.08031632
34	0x3e205e63	0.15661006
35	0xbec96309	-0.3933337
36	0x3e1803dd	0.14845224
37	0x3eae5ead	0.34056607
38	0xbdacb20e	-0.08432399
39	0x3f190b7b	0.5978314
40	0xbf62c335	-0.8857911
41	0xbe3ca3fb	-0.18421929
42	0xbf884c2b	-1.0648245
43	0xbf609ef6	-0.87742555
44	0xbf00d14a	-0.5031935
45	0xbc0d581f	-0.008626967
46	0x3f1f8442	0.62311184
47	0xbf9ff7d0	-1.2497501
48	0xbfb3a74e	-1.4035432
49	0x3f85ad88	1.0443583
50	0x3e7f4c18	0.24931371
51	0x3f6fa397	0.93608993
52	0xbf81ff3f	-1.015602
53	0x3f0e1dea	0.55514395
54	0x3f53a943	0.8268015
55	0x3f259283	0.64676684
56	0x3f3553f3	0.7083122
57	0xbf0ff600	-0.5623474
58	0x3dae54aa	0.08512242
59	0x3f81e16b	1.0146917
60	0xbdb7b7d3	-0.089706086
61	0x3eac48cd	0.33649293
62	0x3e0c94af	0.13728593
63	0x3d953b87	0.072867446
64	0x3f9e1870	1.2351208
65	0x3f5cb062	0.8620664
66	0x3ee6ed70	0.45103025
67	0xbea30852	-0.31842285
68	0xbec435cf	-0.38322303
69	0x3f4bf4c3	0.7967035
70	0x3eca2e9d	0.39488688
71	0x3e0c2ea9	0.13689674
72	0x3eb08ebd	0.344839
73	0x3f39e6b0	0.72617626
74	0x3fbdfddb	1.4843096
75	0xbea77250	-0.327044
76	0x3c0a0354	0.008423645
77	0xbe8614d7	-0.26187775
78	0xbe06a2d7	-0.13148056
79	0x3eea54f7	0.45767948
80	0x3eab382b	0.3344129
81	0x3e9b2fe9	0.3030999
82	0xbfbab9fe	-1.458801
83	0x3c86ffac	0.016479336
84	0x3f1976e0	0.59947014
85	0x3eaa8788	0.33306527
86	0xbd8f16e4	-0.06986788
87	0xbed556f1	-0.41667894
88	0xbf386a28	-0.7203698
89	0x3fb63f78	1.4238119
90	0x3efd35f4	0.49455225
91	0xbedcb2c4	-0.43105137
92	0xbea956b7	-0.3307397
93	0x3e57d629	0.2107779
94	0x3f18a5b7	0.5962786
95	0x3f598a94	0.8497708
96	0xbe5d1268	-0.21589053
97	0xbe0eae44	-0.13933665
98	0x3dc0a8dc	0.09407207
99	0x3ea9a55a	0.33133966
100	0x3f058df4	0.5216973
101	0x3f062599	0.5240112
102	0xbf93c67f	-1.1544951
103	0xbf1e406f	-0.6181707
104	0x3e54b70a	0.20772949
105	0xbc7b34b9	-0.015332394
106	0xbec9ca1b	-0.39412007
107	0xbe027466	-0.12739715
108	0xbea8d3d7	-0.3297412
109	0x3e2656a7	0.16243993
110	0x3e5f352b	0.21797626
111	0x3e95e33c	0.2927493
112	0xbe1a1fe2	-0.15051225
113	0x3d0f3b84	0.034968868
114	0x3f914cd0	1.1351566
115	0x3ea59cb2	0.32346112
116	0x3e49cc55	0.19706853
117	0xbf8efa5a	-1.1170151
118	0xbf87ad73	-1.0599808
119	0xbf1be316	-0.6089338
120	0x3e9e17b9	0.30877474
121	0xbd0ce31d	-0.03439628
122	0xbe1e54e8	-0.15462077
123	0xbe17d7f6	-0.14828476
124	0x3f8034b5	1.0016085
125	0x3f0d7a64	0.5526488
126	0x3e31bd51	0.17357375
127	0x3e8e3431	0.27774194
128	0x3e20c006	0.15698251
129	0x3f11e02d	0.5698269
130	0xbbafb5e5	-0.0053622597
131	0xbf5dfabe	-0.8671073
132	0xbe3d6608	-0.18495953
133	0x3ea2d347	0.31801817
134	0x3f087e30	0.53317547
135	0x3e09a58a	0.13442054
136	0xbf16b840	-0.58874893
137	0xbb89e53a	-0.004208234
138	0x3ea730b7	0.32654354
139	0x3eb32f84	0.3499719
140	0x3efe3f03	0.4965745
141	0x3f3217e1	0.69567686
142	0xbf974a9f	-1.1819648
143	0xbf084154	-0.5322468
144	0x3f866857	1.0500592
145	0x3e0579a7	0.13034688
146	0xbe23318c	-0.1593687
147	0x3e3177c6	0.17330846
148	0x3e146fbe	0.14495751
149	0x3f014182	0.5049058
150	0x3ed78917	0.4209678
151	0xbee798b9	-0.45233706
152	0xbe11524b	-0.14191549
153	0x3e30182d	0.17196722
154	0x3e6fe074	0.23425466
155	0xbda603f7	-0.08106225
156	0xbe91a85a	-0.28448755
157	0x3e47aedd	0.19500299
158	0x3e9ae192	0.30250221
159	0x3f9e4040	1.2363358
160	0xbf9e66dd	-1.2375141
161	0xbf32dea5	-0.6987098
162	0xbfb7d5f3	-1.4362167
163	0xbf912950	-1.1340733
164	0xbe84202e	-0.258058
165	0xbf223455	-0.633611
166	0xbf5a2592	-0.8521358
167	0xbfb6f12e	-1.4292352
168	0xbefdbd24	-0.49558365
169	0xbd744a37	-0.05964109
170	0xbea6876a	-0.32525188
171	0xbecffb3f	-0.40621373
172	0xbfd9eaad	-1.7024742
173	0xbfb97556	-1.4488933
174	0xbf795d7f	-0.9740829
175	0xbfde0f64	-1.7348447
176	0xbf0ba594	-0.5454953
177	0xbfd53f9d	-1.6660038
178	0xbf196fba	-0.59936106
179	0x3f13f1ef	0.57791036
180	0x3e077869	0.13229527
181	0x3e05ebd4	0.13078243
182	0xc01ae423	-2.4201744
183	0xbfe6ab30	-1.8020992
184	0xbeccb5dd	-0.399825
185	0xbf1f77f5	-0.62292415
186	0xbe93d0b7	-0.28870174
187	0xbffc6e4b	-1.9721159
188	0xbf8d59ed	-1.1043068
189	0x3e936bff	0.28793332
190	0xbe62a166	-0.22131881
191	0xbf5bd9e3	-0.85879344
192	0xbf38e3b1	-0.7222243
193	0xbee26025	-0.44213977
194	0x3df5442a	0.11975892
195	0xbf181604	-0.59408593
196	0xbef180fd	-0.47168723
197	0xbf68ca98	-0.90934134
198	0xbf8031d1	-1.0015203
199	0x3c6c85a6	0.014436161
200	0xbfdc02f0	-1.7188396
201	0xbf12916f	-0.57253164
202	0xbfb99e49	-1.450143
203	0xbf813daa	-1.0096943
204	0xbf717cf8	-0.9433131
205	0xbf49dbcd	-0.78851014
206	0xbeb3feb6	-0.35155267
207	0xbff5f022	-1.9213908
208	0xbfcaa9a0	-1.5833015
209	0xbd60e905	-0.054909725
210	0xbf69b2c5	-0.91288406
211	0xbebfcc3b	-0.37460503
212	0xc01dc620	-2.4652176
213	0xbf2ea85a	-0.68225634
214	0x3ec0a947	0.37629148
215	0xbe8ad3a9	-0.2711461
216	0xbe2175af	-0.15767549
217	0xbfb0012a	-1.3750355
218	0xbfc98e01	-1.5746461
219	0x3e0fc79a	0.14040986
220	0xbf96126c	-1.1724372
221	0xbef1b0a3	-0.47205076
222	0xbf85132e	-1.0396478
223	0xbf8fae66	-1.1225097
224	0x3ee6d7c0	0.4508648
225	0x3e8a03da	0.26956064
226	0xbdbdadfe	-0.09261702
227	0xbfa79141	-1.3091203
228	0xbf1cd591	-0.61263376
229	0xbe5317f4	-0.20614606
230	0xbeb6d2d1	-0.35707715
231	0xbef33678	-0.47502494
232	0xbfa3e71b	-1.2804903
233	0xbf573b8d	-0.8407524
234	0x3f3f4ee9	0.7472978
235	0xbf6057db	-0.87634057
236	0xbef9ffd9	-0.4882801
237	0xbfb091cf	-1.3794497
238	0xbf88080e	-1.0627458
239	0xbe702b20	-0.23453951
240	0xbee3a91c	-0.44464958
241	0xbf3c1568	-0.73470163
242	0xc00771e9	-2.1163275
243	0xbf56b6d5	-0.8387273
244	0xbcf161f1	-0.029465647
245	0xbe3be8b8	-0.18350494
246	0xbee47545	-0.4462072
247	0xbf88c4a0	-1.0685005
248	0xbfc240ce	-1.5176027
249	0x3e879729	0.26482514
250	0xbeedd692	-0.46452767
251	0xbf982482	-1.1886141
252	0xbfb204b5	-1.3907686
253	0xbefd824d	-0.49513474
254	0xbe34c026	-0.17651424
255	0x3d3d6218	0.046236128

bias_hh_l1 f4 [128]
0	0x3e71bc1b	0.23606913
1	0xbf1c1161	-0.6096402
2	0xbf2aa08e	-0.66651237
3	0xbf5ba3bf	-0.8579673
4	0x3e66f1c5	0.22553165
5	0x3ebf1ba4	0.37325776
6	0x3dd81005	0.105499305
7	0xbf1c1d8f	-0.609826
8	0xbf0e5ee6	-0.55613554
9	0x3e9a6ffe	0.30163568
10	0x3e86f7f5	0.2636105
11	0xbebd263b	-0.3694323
12	0xbebe4ec2	-0.37169462
13	0xbe20acb3	-0.1569088
14	0xbecf6a33	-0.4051071
15	0xbeabe7c5	-0.33575264
16	0xbe8e86d0	-0.2783723
17	0xbf020860	-0.5079403
18	0xbefab66b	-0.489673
19	0xbe05a512	-0.1305125
20	0x3c7a602d	0.015281719
21	0xbd163a3a	-0.036676623
22	0xbef62240	-0.48073006
23	0xbd2c4838	-0.04206106
24	0xbf6a3ce1	-0.91499144
25	0xbd935a82	-0.07194997
26	0xbe41d7f5	-0.18930037
27	0xbecf1ad4	-0.40450156
28	0xbe927b9b	-0.28609928
29	0x3cf2c441	0.029634597
30	0xbf15fd15	-0.585893
31	0xbde2922f	-0.110630386
32	0x3e3e6228	0.18592131
33	0xbf9e0553	-1.2345375
34	0xbf9e875b	-1.2385057
35	0xbf9965df	-1.1984214
36	0xbe98a57d	-0.29813758
37	0x3e77e03d	0.24206634
38	0xbd7b3a48	-0.06133488
39	0xbf352a75	-0.7076791
40	0xbf2da824	-0.6783469
41	0xbe6237af	-0.22091554
42	0x3e5d0801	0.21585084
43	0xbe484395	-0.1955703
44	0xbf35d56b	-0.71028775
45	0xbec22979	-0.37922266
46	0xbf3a705f	-0.72827715
47	0xbf2607c8	-0.64855623
48	0xbeb6497d	-0.35602942
49	0xbea4c5b7	-0.32182094
50	0xbf536a97	-0.8258452
51	0xbed53545	-0.41642204
52	0xbe8cef34	-0.27526248
53	0xbe53c833	-0.20681839
54	0xbf83ffb7	-1.0312413
55	0xbe3cb593	-0.1842864
56	0xbf8944b9	-1.0724097
57	0xbdb35ef5	-0.08758346
58	0xbf1e5e56	-0.61862695
59	0xbed200be	-0.4101619
60	0xbe57ffae	-0.21093628
61	0xbe8f58e8	-0.27997518
62	0xbf2dd301	-0.6790009
63	0xbe04deb8	-0.12975585
64	0xbe80f566	-0.25187224
65	0x3de0c3fe	0.109748825
66	0xbcfcaf07	-0.030845178
67	0x3e3a2001	0.18176271
68	0x3c35e46c	0.011101823
69	0x3f197ea7	0.5995888
70	0x3e8e07bf	0.27740285
71	0xbd38f0a3	-0.045151364
72	0xbdc9fc12	-0.09862532
73	0xbdc3dfca	-0.09564169
74	0xbf1ba69c	-0.608011
75	0x3c6f3b71	0.014601574
76	0xbda1edd0	-0.07906687
77	0x3d961528	0.07328254
78	0xbda20000	-0.07910156
79	0x3e14d211	0.14533259
80	0x3e243e31	0.16039349
81	0x3d93c955	0.072161354
82	0xbdaed82f	-0.085373275
83	0x3d98b92a	0.07457192
84	0x3e0e443f	0.13893221
85	0xbe8b4c9b	-0.27206883
86	0x3e36fbb1	0.1786945
87	0xbd9dc33f	-0.07703256
88	0xbe00bfe5	-0.12573202
89	0xbe95d424	-0.29263413
90	0x3d0dccf0	0.03461927
91	0xbdf9e1a7	-0.12201243
92	0xbd0eb369	-0.034839068
93	0x3e01c66d	0.1267335
94	0xbbf69de9	-0.0075261486
95	0x3e270a89	0.16312613
96	0xbd8ac790	-0.06776345
97	0xbf1db1bf	-0.61599344
98	0xbf3782d3	-0.71683997
99	0xbfa8ee9a	-1.3197815
100	0x3d5680d0	0.05236894
101	0xbb7b6991	-0.0038362483
102	0xbde88b4f	-0.11354696
103	0xbf3c6850	-0.7359667
104	0xbf1cebbe	-0.61297214
105	0x3d0835ce	0.033254437
106	0xbaad99a6	-0.0013244643
107	0xbe88c265	-0.2671081
108	0xbed979c7	-0.4247572
109	0xbe7e3f10	-0.24828744
110	0xbf1ce081	-0.61280066
111	0xbf150cd7	-0.5822272
112	0xbf011f03	-0.50437945
113	0xbf1ce8b8	-0.612926
114	0xbf26e1f2	-0.65188515
115	0xbd55738e	-0.052112155
116	0xbeada719	-0.33916548
117	0xbe897527	-0.26847193
118	0xbf88f5d8	-1.0700026
119	0xbd26dbf0	-0.040737092
120	0xbf84ef4f	-1.0385531
121	0xbca6eafe	-0.020375725
122	0xbec8aa08	-0.39192224
123	0xbf137370	-0.5759802
124	0xbf1a5fab	-0.6030223
125	0x39090424	0.0001306688
126	0xbf63d6a0	-0.88999367
127	0xbeec003e	-0.46093935

weight_ih_l0 f4 [128, 5]
0	0xbf75a32e	-0.9595212
1	0xbf68a2d5	-0.9087346
2	0x3e8cd5d3	0.27506885
3	0x3e75a6f8	0.23989475
4	0xbf17fd58	-0.59370947
5	0x3d8e0bd4	0.0693585
6	0x3f145af0	0.5795126
7	0x3f041728	0.51597834
8	0xbd4ef1ff	-0.050523754
9	0x3eea295c	0.4573468
10	0xbd6df21f	-0.058092233
11	0x3defb990	0.11705315
12	0xbf00cd54	-0.50313306
13	0xbe9f9d8b	-0.31174883
14	0xbe713b53	-0.23557787
15	0xbf1f0efd	-0.62132245
16	0xbf21516f	-0.6301488
17	0xbe9fe3f2	-0.31228596
18	0xbf2f0aca	-0.6837584
19	0x3ee08f18	0.43859172
20	0xbe875392	-0.26430947
21	0xbf3447bb	-0.7042195
22	0x3f52d63a	0.82358134
23	0x3f166a13	0.58755606
24	0x3d6303fa	0.055423714
25	0xbedaded6	-0.42748135
26	0x3eaa666d	0.3328127
27	0x3f2f362f	0.6844205
28	0x3f3026da	0.6880928
29	0xbc6e15ef	-0.014531597
30	0xbdada708	-0.08479124
31	0xbee26181	-0.44215015
32	0x3f81921f	1.0122718
33	0x3f32f82b	0.69909924
34	0x3ef96b34	0.48714602
35	0x3f1b710c	0.6071937
36	0xbf0d65fc	-0.5523374
37	0x3e0367c4	0.12832552
38	0x3ef86336	0.48513192
39	0x3ec86118	0.39136577
40	0xbef4bafb	-0.47798905
41	0x3e75f0f9	0.24017705
42	0x3e8d1f80	0.27563095
43	0x3eccc94f	0.39997336
44	0x3e8cbd68	0.27488256
45	0xbd84c150	-0.06482184
46	0x3f63efd5	0.8903783
47	0x3dbf126a	0.09329684
48	0x3e9d8146	0.3076269
49	0x3f0809d9	0.53140026
50	0xbf340257	-0.7031607
51	0x3e8a1197	0.26966545
52	0x3f90b6fa	1.130584
53	0xbf6de4a9	-0.9292703
54	0xbe55bee9	-0.20873608
55	0x3f40b702	0.7527925
56	0x3edc9386	0.430813
57	0xbfb23431	-1.3922178
58	0xbf6030b3	-0.8757431
59	0x3effaeb4	0.49937975
60	0xbefc5184	-0.4928094
61	0xbc42db55	-0.011893113
62	0xbf50ba55	-0.8153432
63	0xbf0a193d	-0.5394476
64	0x3f8017b0	1.0007229
65	0xbe5b0eb8	-0.21392334
66	0xbeea5ec5	-0.45775428
67	0x3c36e239	0.011162334
68	0xbfd740bb	-1.6816629
69	0x3e1bdb42	0.15220359
70	0xbdb8b076	-0.09018032
71	0xbebcba76	-0.36861008
72	0x3f5e54d4	0.8684819
73	0x3f173096	0.5905851
74	0xbf152c6c	-0.5827091
75	0xbf115c58	-0.5678153
76	0xbec7dd36	-0.39035958
77	0xbf096585	-0.5367053
78	0x3e43acc2	0.1910887
79	0x3f2836a2	0.65708363
80	0xbe8a20cd	-0.2697815
81	0xbf1416e1	-0.5784741
82	0xbdb3f46d	-0.08786855
83	0xbf069505	-0.52571136
84	0x3ec600b3	0.38672408
85	0xbefc5780	-0.49285507
86	0xbf03419d	-0.5127199
87	0x3e9377e8	0.2880242
88	0x3f8efb27	1.1170396
89	0x3f91c079	1.1386863
90	0xbd4308d0	-0.047615826
91	0xbf73e5b7	-0.9527239
92	0xbe9b7912	-0.30365807
93	0x3e6da4bf	0.23207377
94	0x3e91c510	0.2847066
95	0xbf2bef41	-0.6716195
96	0xbe19f108	-0.15033352
97	0x3f967e46	1.1757286
98	0x3dae0662	0.08497311
99	0xbd287df2	-0.041135736
100	0xbf6523cf	-0.89507765
101	0x3e1c050c	0.152363
102	0xbeb53a48	-0.35396028
103	0xbf48358a	-0.78206694
104	0x3eb7a0b7	0.35864803
105	0xbeb98538	-0.3623445
106	0xbec93964	-0.39301598
107	0x3faf0b53	1.3675331
108	0x3e559eac	0.2086131
109	0xbea210ae	-0.3165335
110	0xbf8117f9	-1.0085441
111	0xbf4e92c2	-0.80692685
112	0xbe6c9243	-0.2310267
113	0x3bf8bfec	0.0075912382
114	0xbe95f2fd	-0.29286948
115	0x3e03cf8f	0.12872146
116	0xbf416261	-0.7554074
117	0xbc0c084c	-0.0085469
118	0x3e911070	0.28332853
119	0x3e800f32	0.25011593
120	0x3eee067b	0.4648932
121	0x3e682419	0.2267002
122	0x3f96fda1	1.1796151
123	0xbdb51ed2	-0.08843769
124	0xbead6dcc	-0.3387283
125	0xbe43318b	-0.19061868
126	0x3b8d0aa1	0.0043042456
127	0x3dd56295	0.10419194
128	0xbc218a43	-0.009859624
129	0xbdf78f36	-0.12087862
130	0xbea94b95	-0.33065477
131	0xbeff2498	-0.49832606
132	0x3e910d5c	0.28330505
133	0x3f7d0b92	0.9884578
134	0x3eb07bee	0.3446955
135	0xbd43f332	-0.04783935
136	0xbec5f9f9	-0.38667277
137	0xbead42b6	-0.3383996
138	0x3db7870e	0.089613065
139	0x3f8b5df4	1.0888047
140	0xbee85457	-0.45376846
141	0xbdc95f85	-0.09832672
142	0x3f1c6186	0.6108631
143	0xbf236f7b	-0.6384198
144	0xbed40e69	-0.41417244
145	0xbea5a768	-0.32354283
146	0xbe223209	-0.158394
147	0x3f70a7a4	0.940058
148	0xbe9cb9aa	-0.306104
149	0x3f2a7ebe	0.66599643
150	0xbf6f4671	-0.9346686
151	0xbef59b3a	-0.4796999
152	0xbeb646db	-0.35600933
153	0x3f84c2eb	1.0371984
154	0x3fb4430f	1.4082965
155	0x3f9aac50	1.2083836
156	0xbf1178f4	-0.56825185
157	0xbeb8de99	-0.3610733
158	0xbe35837e	-0.17725942
159	0x3ee27798	0.44231868
160	0xbf945021	-1.1586953
161	0xbf5778b0	-0.8416853
162	0xbf9dee9e	-1.2338445
163	0x3dc9c406	0.09851842
164	0xbf741fa2	-0.9536077
165	0xbe34bbdb	-0.17649786
166	0x3e830b10	0.25594378
167	0x3e34fecf	0.17675327
168	0xbe9d68fd	-0.30744162
169	0xbf08ba2e	-0.5340909
170	0xbeb192b3	-0.34682235
171	0x3e2dce0c	0.16973132
172	0xbee511e7	-0.4474022
173	0xbf0376b9	-0.5135303
174	0xbeab5285	-0.33461395
175	0xbff6cc4f	-1.92811
176	0xc0055eae	-2.0839038
177	0xbf907802	-1.1286623
178	0x3e0ad592	0.13558033
179	0xbeb2b72b	-0.3490537
180	0xbf1dc3e4	-0.6162703
181	0xbf64aed8	-0.8932929
182	0xbf899b05	-1.0750433
183	0xbf48c8f6	-0.7843164
184	0xbe0af216	-0.13568911
185	0xbf33524d	-0.70047456
186	0xbe93257b	-0.28739533
187	0x3e089faa	0.13342157
188	0x3e82bd65	0.25535122
189	0xbebc0cad	-0.3672842
190	0xbf9901c6	-1.1953666
191	0xbfac4bbc	-1.3460612
192	0xbf093488	-0.5359578
193	0xbed36357	-0.41286728
194	0x3ef9b6a0	0.48772144
195	0xbea1f660	-0.31633282
196	0xbf641a5a	-0.8910271
197	0xbeb9f62f	-0.36320636
198	0x3ed0a960	0.40754223
199	0xbecf669a	-0.40507966
200	0xbf825ddb	-1.0184892
201	0xbd21be26	-0.03948798
202	0xbe406d17	-0.18791614
203	0xbeb61107	-0.35559866
204	0xbedf14fc	-0.43570697
205	0xbed99bad	-0.42501584
206	0x3f17f0f2	0.5935203
207	0xbef58180	-0.47950363
208	0x3cd15e6d	0.025557721
209	0x3de3b02d	0.11117587
210	0xbfae6ed5	-1.3627573
211	0xc02259fb	-2.536742
212	0xbf021e4a	-0.5082747
213	0xbde7ca50	-0.11317885
214	0xbf3d4c0c	-0.73944163
215	0xbe87397b	-0.26411042
216	0x3f15b45c	0.5847833
217	0xbfd48cb6	-1.6605442
218	0xbf596363	-0.8491728
219	0x3dde9d39	0.108698316
220	0xbf3cd601	-0.73764044
221	0xbd9db558	-0.07700604
222	0xbfbd34a6	-1.4781692
223	0xbf048b43	-0.51774997
224	0xbe8552ac	-0.26039636
225	0xbec0e182	-0.3767205
226	0xbf00384b	-0.50085896
227	0xbe56bd0a	-0.2097055
228	0xbf9906c2	-1.1955187
229	0xbf0a9fb0	-0.54149914
230	0xbed94be2	-0.42440706
231	0xbe81ce71	-0.25352815
232	0x3e1f9818	0.15585363
233	0xbe0fb9e5	-0.14035757
234	0xbf16be9b	-0.5888459
235	0xbefa9d32	-0.48948056
236	0x3cb49fe8	0.022048905
237	0xbf0f072f	-0.55870336
238	0x3de84008	0.11340338
239	0x3e68c0b3	0.22729759
240	0xbfdd3483	-1.728165
241	0xbfc30175	-1.523482
242	0xbfd47431	-1.6597959
243	0xbf2be501	-0.6714631
244	0xbe729b5c	-0.23692077
245	0xbf5310ba	-0.824474
246	0xbf80ca6a	-1.0061772
247	0xbf231f33	-0.6371948
248	0x3f1e9c36	0.6195711
249	0x3e269d70	0.16270995
250	0xbf1a179a	-0.60192263
251	0xbfb4ce49	-1.4125453
252	0xbf4d07b1	-0.8008986
253	0x3f1356af	0.57554144
254	0xbeb77a85	-0.35835662
255	0xbfb43bdc	-1.4080768

weight_hh_l0 f4 [128, 32]
0	0xbfd6bcef	-1.6776408
1	0x3f0131e7	0.5046677
2	0xbf29a52c	-0.6626766
3	0xbf5273d9	-0.8220802
4	0xbfa3d633	-1.2799743
5	0xbee96efb	-0.45592484
6	0xbe4cb2e5	-0.19990118
7	0xbee9412b	-0.45557532
8	0x3dff8931	0.12477339
9	0xbea657ea	-0.32488948
10	0xbd09b21f	-0.033617135
11	0xbe23bb49	-0.15989412
12	0xbf9ef7f3	-1.2419418
13	0xbd83f97c	-0.0644407
14	0x3fb4e630	1.4132748
15	0xbeca0d76	-0.39463395
16	0xbed97d0f	-0.42478225
17	0xbd8b6b11	-0.06807531
18	0x3f5c5a05	0.8607486
19	0xbf820261	-1.0156976
20	0x3d3e7cfa	0.046505906
21	0xbf9a21ec	-1.2041602
22	0xbe8dd414	-0.27700865
23	0x3f0c95c4	0.54916024
24	0x3f4a3ee2	0.790022
25	0xbf6fcfa6	-0.9367622
26	0xbeb0e91c	-0.34552848
27	0xbddb8fe2	-0.10720803
28	0xbede420b	-0.43409762
29	0xbf70687a	-0.9390942
30	0xbe3f461e	-0.18679091
31	0xbf276395	-0.65386325
32	0x3ed962cd	0.42458192
33	0xbe3bb12b	-0.18329303
34	0xbdf5f962	-0.120104566
35	0xbed019a3	-0.4064456
36	0x3f71f410	0.94513035
37	0x3f0d6660	0.55234337
38	0xbebec3a7	-0.37258646
39	0x3ea26aa9	0.31722
40	0xbeaa45a1	-0.33256248
41	0x3f099bf5	0.53753597
42	0x3efcfea8	0.49413037
43	0x3f0dae01	0.55343634
44	0xbd82753f	-0.06370019
45	0xbea5d2a0	-0.32387257
46	0xbecea81d	-0.40362635
47	0x3f2cd3f1	0.67510897
48	0x3e2f9d11	0.1714976
49	0xbf15c7e9	-0.58508164
50	0xbf88a26a	-1.0674565
51	0xbefd72fc	-0.4950179
52	0xbe634843	-0.22195534
53	0x3f816879	1.0110008
54	0xbf0c32d8	-0.5476508
55	0x3dd2b991	0.102893
56	0xbf456716	-0.7711042
57	0x3ee35e08	0.44407678
58	0xbdf12129	-0.11773903
59	0x3f1e7bdf	0.6190776
60	0x3f0b546b	0.54425687
61	0xbe83476b	-0.25640425
62	0x3ed0684a	0.40704566
63	0x3e616a9e	0.22013327
64	0xbf55cb9f	-0.83513826
65	0xbd95e0b8	-0.07318252
66	0x3f37211f	0.71534914
67	0x3ef72523	0.4827052
68	0xbeb8ac15	-0.36068788
69	0xbf3ad3db	-0.72979516
70	0xbf03074b	-0.51183003
71	0xbd4927c9	-0.049110208
72	0x3f0ae0f7	0.5424952
73	0x3ebb32b3	0.36562118
74	0xbebbe431	-0.36697534
75	0xbeada68c	-0.33916128
76	0x3e02beea	0.1276814
77	0x3d200d99	0.039075468
78	0xbf242c3a	-0.64129984
79	0x3f19b8d4	0.6004765
80	0xbf39d663	-0.72592753
81	0x3ef43d6c	0.4770311
82	0xbcc6c8f1	-0.024265738
83	0x3ee20fd6	0.44152707
84	0x3e5340ae	0.20630142
85	0xbe162e84	-0.14666182
86	0x3d889546	0.06669097
87	0xbdf34a83	-0.11879446
88	0x3e59e351	0.2127812
89	0x3ec5f32a	0.38662082
90	0x3e705dff	0.23473357
91	0x3efe090f	0.49616286
92	0xbeee2055	-0.46509042
93	0xbe190734	-0.14944154
94	0xbc850877	-0.016239388
95	0x3e3145ce	0.17311785
96	0xbeb17ec3	-0.34667024
97	0x3f257e19	0.64645535
98	0x3eb77727	0.35833094
99	0x3e81cc8f	0.25351378
100	0xbe685b01	-0.22690965
101	0xbedaf419	-0.42764357
102	0x3e7a9b15	0.24473222
103	0x3fa491e5	1.2857023
104	0xbe602912	-0.21890667
105	0x3ee089f2	0.43855244
106	0xbf6af8b3	-0.91785735
107	0xbf2456c9	-0.64194924
108	0x3f75db75	0.9603799
109	0xbdfbbc71	-0.12291802
110	0xbeb1b01c	-0.34704673
111	0x3e65def7	0.22448336
112	0x3d91f983	0.07127669
113	0xbef34eca	-0.4752105
114	0xbeb68253	-0.35646304
115	0x3f84851d	1.0353123
116	0x3f97d75e	1.18626
117	0xbf827012	-1.0190451
118	0x3dce71c7	0.10080295
119	0x3f3293cc	0.6975677
120	0x3e24b7fe	0.16085812
121	0xbeeecf31	-0.4664245
122	0xbf89c883	-1.0764316
123	0x3e9a9f89	0.3019984
124	0xbee09a23	-0.43867597
125	0x3ecae97e	0.39631265
126	0xbee34035	-0.44384924
127	0xbeb3684f	-0.3504052
128	0x3e75aa7b	0.23990814
129	0x39258644	0.00015785644
130	0x3ed212b0	0.41029882
131	0xbccc4d22	-0.024939124
132	0xbf95af30	-1.1694088
133	0xbf212f9c	-0.6296327
134	0x3d1abb56	0.037776314
135	0xbf565d01	-0.8373566
136	0x3cd1ed32	0.025625799
137	0xbe8c6167	-0.27418062
138	0xbf522cdb	-0.82099694
139	0xbf3586a7	-0.7090859
140	0xbf4aa2f9	-0.79154927
141	0x3fbb1ed1	1.461878
142	0x3f361d4d	0.7113846
143	0xbe843135	-0.25818792
144	0x3e3c4b08	0.18387997
145	0x3e6642b9	0.2248639
146	0x3ed45119	0.41468123
147	0x3f0cdcdf	0.5502452
148	0xbf7f4e0f	-0.9972848
149	0xbf3aaa9f	-0.729166
150	0x3f892541	1.0714494
151	0x3f1d4a84	0.61441827
152	0x3f706119	0.9389816
153	0xbedae3e8	-0.42752004
154	0xbdf566f8	-0.1198253
155	0xbc785883	-0.015157822
156	0xbe16cea1	-0.1472726
157	0x3d31a9be	0.04337477
158	0x3f261e83	0.6489031
159	0xbf5ec517	-0.87019485
160	0x3e9a1e74	0.3010136
161	0x3f673da4	0.9032843
162	0x3e2f5ea5	0.17125948
163	0x3f9b2a84	1.212235
164	0x3f0f56ce	0.5599183
165	0xbf0f4f70	-0.55980587
166	0xbf1890b6	-0.5959581
167	0x3e451f0b	0.19250123
168	0x3e656f95	0.22405846
169	0x3f025d09	0.5092321
170	0xbed66f92	-0.41881996
171	0x3f9488a5	1.1604201
172	0x3ead6b2b	0.33870825
173	0xbd1c8632	-0.038213916
174	0xbec58415	-0.38577333
175	0x3f624b70	0.8839636
176	0xbe3407bd	-0.17581077
177	0x3f02f427	0.51153797
178	0x3e9e172c	0.30877054
179	0xbed78cdc	-0.42099655
180	0x3f03fc1a	0.5155655
181	0x3d67e6a2	0.056616433
182	0x3f58093b	0.84389085
183	0x3dd35ea2	0.10320784
184	0xbf7a5359	-0.9778343
185	0xbf1b11c0	-0.6057396
186	0xbac97da2	-0.0015372525
187	0x3f954df3	1.1664413
188	0xbe92770a	-0.28606445
189	0x3f90d9d8	1.1316481
190	0xbfb31c44	-1.3993001
191	0xbf99fb70	-1.2029858
192	0xbe1c651b	-0.15272944
193	0x3f4b4243	0.7939798
194	0xbe663073	-0.2247942
195	0x3f555603	0.8333437
196	0xbf1389b6	-0.57632005
197	0xbe10fe7e	-0.14159581
198	0x3f567498	0.8377166
199	0xbeb431ca	-0.35194236
200	0x3f79b474	0.97540975
201	0xbf42e10a	-0.7612463
202	0xbe922b94	-0.28548872
203	0xbdca041d	-0.09864066
204	0xbf652bd1	-0.89519984
205	0x3f8a5aa1	1.0808908
206	0x3eaae700	0.33379364
207	0x3cb3de1f	0.021956502
208	0xbeb37c4f	-0.35055777
209	0x3f03388a	0.51258147
210	0x3fc2a657	1.5207013
211	0x3f3fd305	0.74931365
212	0xbc94a517	-0.018145127
213	0xbf48077b	-0.78136414
214	0x3f1d126f	0.6135625
215	0xbeb4d4c1	-0.35318568
216	0x3f32a452	0.6978198
217	0xbf5c05cf	-0.85946363
218	0x3ed06d50	0.407084
219	0xbfd82c8d	-1.6888596
220	0xbe8605d6	-0.26176327
221	0xbeb13f48	-0.34618592
222	0xbf055de6	-0.520964
223	0xbeb51b05	-0.35372177
224	0x3f256a8c	0.646157
225	0x3d389eca	0.045073308
226	0x3e205dab	0.15660731
227	0x3d06056e	0.032720022
228	0x3dee11ce	0.1162449
229	0x3e278815	0.16360505
230	0xbd5ccfd3	-0.053909134
231	0x3f0918b2	0.5355331
232	0xbf006a18	-0.50161886
233	0xbd84d0bc	-0.064851254
234	0x3f2fea79	0.6871715
235	0x3f1a02e5	0.60160667
236	0x3f1f3e23	0.6220419
237	0x3e785178	0.24249828
238	0xbf33ff4b	-0.7031142
239	0x3e4cc450	0.19996762
240	0x3e0b6dc0	0.13616085
241	0x3f09640b	0.5366828
242	0xbe854cea	-0.26035243
243	0xbf0bf22f	-0.5466642
244	0xbf06d146	-0.52663076
245	0x3f9a621e	1.2061193
246	0xbeeb38b1	-0.4594169
247	0xbe95a234	-0.29225314
248	0xbef5d6cb	-0.48015437
249	0xbed92b79	-0.4241598
250	0xbe7f9397	-0.24958645
251	0x3d7d0ba9	0.061778698
252	0x3cb11c20	0.021619856
253	0x3f106e28	0.56418085
254	0xbf11d70a	-0.5696875
255	0xbeea356a	-0.45743877

weight_ih_l1 f4 [128, 64]
0	0x3d06dc13	0.032924723
1	0xbe0af970	-0.13571715
2	0x3b0c673f	0.0021423844
3	0xbcc33289	-0.023827808
4	0xbe8c6e44	-0.27427876
5	0xbd474749	-0.048651967
6	0xbeb84953	-0.35993442
7	0xbe9a3faa	-0.30126697
8	0x3ed02588	0.40653634
9	0xbddbe4d3	-0.10737004
10	0x3e8a56df	0.27019402
11	0xbe6a7ce7	-0.22899209
12	0xbe8ade02	-0.27122504
13	0x3ea5be57	0.3237178
14	0xbe757dab	-0.2397372
15	0xbdf955af	-0.12174546
16	0x3e250b32	0.16117552
17	0x3dbdd072	0.092682734
18	0xbd35b971	-0.044366304
19	0xbc30b751	-0.010785894
20	0x3c715b64	0.014731262
21	0xbe0c2c26	-0.13688716
22	0xbde6a5d2	-0.112620965
23	0x3d80354c	0.062601656
24	0x3e6fff2b	0.23437183
25	0xbe146e8a	-0.14495292
26	0x3c5ad73a	0.013356978
27	0x3d4b09a6	0.04956975
28	0xbe979030	-0.29602194
29	0x3d99969b	0.07499429
30	0x3d5a648d	0.05331855
31	0xbec537a9	-0.38519028
32	0xbd307529	-0.043080483
33	0x3e1f0477	0.15529047
34	0xbebfcb68	-0.37459874
35	0xbcfbe297	-0.030747695
36	0x3f2870cd	0.6579712
37	0x3db326ed	0.08747659
38	0xbe26dc2c	-0.16294926
39	0x3ecb109b	0.39661106
40	0xbe89dc14	-0.2692572
41	0xbec9c523	-0.39408216
42	0x3dd7351e	0.10508178
43	0x3e4778fd	0.19479747
44	0x3e1ad00e	0.15118429
45	0xbe83cb1c	-0.25740898
46	0x3dca4c6f	0.0987786
47	0x3db55a0d	0.088550664
48	0x3e5997e9	0.21249355
49	0x3e01cd4e	0.12675974
50	0x3e2f448e	0.17115995
51	0xbdc49ade	-0.09599851
52	0x3e6cb649	0.23116411
53	0xbc145950	-0.009054497
54	0xbe9521fd	-0.29127494
55	0xbf28e00c	-0.6596687
56	0x3e0f6534	0.1400345
57	0x3c3d0255	0.0115362005
58	0xbe3d9641	-0.18514349
59	0x3ddbd06d	0.107331134
60	0xbe1e78d8	-0.15475786
61	0xbebe63f4	-0.37185633
62	0x3d399007	0.04530337
63	0xbddc5de3	-0.10760095
64	0xbdd96d53	-0.10616555
65	0x3f240e2e	0.64084136
66	0x3f32ff7b	0.6992108
67	0xbdc28c89	-0.09499461
68	0xbce94f56	-0.028480213
69	0xbfae1038	-1.35987
70	0x3c96d9cf	0.018414406
71	0x3f1cf434	0.61310124
72	0x3f8b5390	1.0884876
73	0x3df8e82c	0.12153658
74	0xbeaa99fe	-0.33320612
75	0xbeff1692	-0.49821907
76	0x3fa593f3	1.2935776
77	0xbf301797	-0.68785995
78	0x3f9ff546	1.2496727
79	0xbe84d244	-0.2594167
80	0x3e01ed01	0.12688066
81	0xbf66c698	-0.9014678
82	0xbf0c18bf	-0.5472526
83	0x3e154d0a	0.1458017
84	0x3f5440cf	0.8291139
85	0xbebc65f1	-0.36796525
86	0xbe1f1ed4	-0.15539104
87	0x3f30ecba	0.69111216
88	0x3f738a68	0.95133066
89	0x3e8ffdf9	0.28123453
90	0xbf912a8b	-1.1341108
91	0x3ef67928	0.4813931
92	0xbf62cbfe	-0.8859252
93	0xbf202cec	-0.62568545
94	0xbe4385a7	-0.19093953
95	0x3df4278e	0.11921607
96	0x3e29e8bc	0.16592687
97	0xbe71a06f	-0.23596357
98	0xbe19df6f	-0.1502664
99	0x3e9f97b1	0.3117042
100	0xbe277885	-0.16354568
101	0xbeb64103	-0.35596475
102	0xbf166b13	-0.5875713
103	0xbf804cf9	-1.002349
104	0xbd7479b1	-0.059686366
105	0x3f0b81d4	0.54494977
106	0xbe8eda54	-0.27900946
107	0xbf3afaf2	-0.7303916
108	0xbdecb936	-0.11558764
109	0xbdf7273b	-0.120680295
110	0x3f46b611	0.7762156
111	0xbe8d49dd	-0.27595416
112	0x3e5dd84c	0.21664542
113	0xbf9a85af	-1.2072047
114	0xbef08771	-0.46978334
115	0x3f2738e4	0.65321183
116	0xbde0b74f	-0.10972463
117	0xbe0a1944	-0.134862
118	0x3f192c5e	0.59833324
119	0xbedd98d2	-0.43280655
120	0xbee60d5c	-0.44932067
121	0xbf958109	-1.1680003
122	0x3e98316a	0.297252
123	0xbd36ec9b	-0.04465924
124	0x3e1a9812	0.15097073
125	0x3f0910ab	0.5354106
126	0x3f049927	0.5179619
127	0xbf0a01af	-0.5390882
128	0xbebf3f28	-0.37352872
129	0x3f5128ce	0.8170289
130	0x3f036358	0.5132346
131	0xbec02e3e	-0.3753528
132	0xbeb737b0	-0.35784674
133	0xbf211484	-0.6292193
134	0x3e4f7eb6	0.2026318
135	0x3f9c1860	1.2194939
136	0xbf417619	-0.7557083
137	0x3ddd782d	0.10813937
138	0xbebf8d28	-0.3741238
139	0x3e40a14f	0.18811534
140	0x3fcce45f	1.6007193
141	0xbf8a8b9b	-1.0823854
142	0x3fe2ca7e	1.7718046
143	0x3e97585a	0.29559594
144	0x3e57a136	0.21057591
145	0xc00a05a1	-2.1565936
146	0xbf4e99b1	-0.80703264
147	0x3eb3cef8	0.35118842
148	0x3f2d08b4	0.67591405
149	0x3f0a6cae	0.5407208
150	0xbe0aae24	-0.13542992
151	0x3f7ee694	0.99570584
152	0x3ec11d8a	0.3771785
153	0xbdaa6a58	-0.08321065
154	0xbfb4854b	-1.4103178
155	0x3fc70f72	1.5551589
156	0xbdeb5438	-0.11490673
157	0xbf2f5b0b	-0.68498296
158	0xbf6da3d6	-0.9282812
159	0xbf1d1c6a	-0.6137148
160	0x3da5b215	0.08090607
161	0xbf206dcf	-0.62667555
162	0x3d5e2d14	0.05424221
163	0x3d4cce78	0.05000159
164	0xbc1f1218	-0.009708904
165	0xbe86de26	-0.2634136
166	0xbe8700bb	-0.26367745
167	0xbd9e09a3	-0.07716682
168	0x3f1eeddf	0.6208171
169	0x3f6808fe	0.9063872
170	0xbf061a5b	-0.52383965
171	0xbf5da8b4	-0.86585546
172	0xbf1ac826	-0.6046165
173	0xbdc9e399	-0.09857864
174	0x3f3c1cea	0.7348162
175	0xbeb65ccb	-0.3561767
176	0x3e046c91	0.1293204
177	0xbe871e81	-0.2639046
178	0xbe25bb77	-0.16184793
179	0x3e892a98	0.2679031
180	0x3e55e973	0.20889835
181	0xbeb99f06	-0.36254138
182	0x3f45275f	0.770132
183	0xbcabaf24	-0.020957537
184	0xbd8dc6a7	-0.069226556
185	0xbf1a90c5	-0.6037715
186	0x3e931546	0.28727168
187	0xbeb94ae8	-0.3618996
188	0x3df33da5	0.11876992
189	0x3ed57fe6	0.4169914
190	0x3f110914	0.5665448
191	0xbf34f394	-0.7068417
192	0xbea1942a	-0.31558353
193	0x3ed351dc	0.4127339
194	0x3f00a15c	0.50246215
195	0x3e268741	0.16262533
196	0xbee2b653	-0.44279727
197	0xbfad457c	-1.353683
198	0x3e820a61	0.25398543
199	0x3eb9d54e	0.3629555
200	0x3ed68652	0.41899353
201	0x3ead773c	0.3388003
202	0xbf126713	-0.5718853
203	0x3db0d476	0.08634274
204	0x3f3e1e0a	0.74264586
205	0xbf0e61bd	-0.55617887
206	0x3f657270	0.8962774
207	0x3e41ca6c	0.18924874
208	0xbe6cc62a	-0.23122469
209	0xbf61c6fe	-0.88194263
210	0xbe930459	-0.28714254
211	0x3f3e7273	0.74393386
212	0x3eaef089	0.3416789
213	0xbf5f2514	-0.8716595
214	0x3eb23dd7	0.34812805
215	0x3f05ac1e	0.52215755
216	0x3f28703c	0.65796256
217	0x3e1e1b49	0.15440096
218	0xbf7f3bad	-0.99700433
219	0x3f3c9da0	0.73678017
220	0xbee5bc5f	-0.44870278
221	0xbe88d02c	-0.26721323
222	0x3e60f1ac	0.2196719
223	0xbe10ab09	-0.14127745
224	0x3e919bf5	0.28439298
225	0xbe07bd7b	-0.13255875
226	0x3ea1722e	0.31532425
227	0x3eadc61c	0.33940208
228	0xbe81d6e3	-0.25359258
229	0xbef0cd58	-0.47031665
230	0x3e8bf01f	0.27331635
231	0x3d445071	0.047928277
232	0xbd4068c6	-0.04697492
233	0x3f14a884	0.58069634
234	0xbe922b03	-0.2854844
235	0xbec1a9ae	-0.37824768
236	0xbd9dcbce	-0.07704888
237	0xbe0c5ab1	-0.13706471
238	0x3f10c423	0.5654928
239	0xbdc0c3f3	-0.09412374
240	0xbe39f5a3	-0.18160109
241	0xbef08987	-0.46979925
242	0xbaafebd2	-0.001342172
243	0x3e538134	0.20654756
244	0x3e2ab9a0	0.16672373
245	0xbe4bac11	-0.19889857
246	0x3f10ed3e	0.56612
247	0x3e8b51ab	0.27210745
248	0xbe27e293	-0.16395025
249	0xbe96be77	-0.29442188
250	0x3e94a58d	0.29032555
251	0xbe49c5f5	-0.19704421
252	0xbe0563de	-0.13026378
253	0x3ddb941e	0.107216105
254	0x3f01f294	0.5076077
255	0x3d1e5cf2	0.03866286
